src/utils/tools/armor.onnx (onnx, 259246 bytes, 40 tensors)

fc.0.weight f4 [64, 512]
000000 d4 4f a5 bb c8 f7 62 bb c5 b5 cd 3c c7 29 19 3d
       -0.0050449166 -0.0034632552 0.025111089 0.037393358
000010 85 2e f9 3c ed 47 38 3c d9 eb 38 3d fe 31 0d 3d
       0.03041769 0.011247617 0.045146797 0.034471504
000020 e0 ac 32 3c 6a b5 82 3d 04 6b 6d bc 5b 72 a2 3c
       0.010905474 0.06382258 -0.014490847 0.01982992
000030 92 bf b7 3b 0a 73 96 3c 33 21 88 3d f7 49 ce 3c
       0.0056075538 0.018365402 0.06646957 0.025181754
000040 27 b6 52 3d 04 a8 8b 3c 1a 57 2b 3c e0 e6 92 3d
       0.051443245 0.01704789 0.010457778 0.07172942
000050 8e 3f 16 3d 2c 80 21 3d b3 8e 6a 3c aa a0 8c 3d
       0.036681704 0.039428875 0.014316249 0.06866582
000060 fd 2f d2 bb 9c 1b bf 3c 77 ee 50 3c 55 51 f6 3b
       -0.006414412 0.023328595 0.012752167 0.0075170198
000070 f2 81 a9 3b bf 05 da 3c 6d 8a 8b 3d cf 4e 32 3d
       0.0051729614 0.026614068 0.06813512 0.04353219
000080 94 60 80 3a 2c c8 2d 3d 80 f0 1f 3d 64 b4 cc 3c
       0.0009794408 0.042427227 0.039047718 0.02498836
000090 fa e7 83 3c d3 73 cb 3b 8c f4 92 3d 50 af 82 3c
       0.016101826 0.0062088757 0.0717555 0.015952736
0000a0 ba 4a df 3c 77 7a 6a 3c 82 e5 72 bc 58 3a 86 ba
       0.027257312 0.014311424 -0.014825227 -0.0010240776
0000b0 3c cf 67 3d 84 ea f1 3c 8f c1 d2 3c de ee 92 3d
       0.05659412 0.029530771 0.025727062 0.071744666
0000c0 de 1a 6f 3d db 23 84 3d 53 16 73 3d 24 d5 94 3b
       0.058375232 0.064521514 0.059347462 0.00454201
0000d0 cc af 95 bb eb ba 86 3d b6 66 ee 3c 35 0a 45 bc
       -0.0045680758 0.065786205 0.02910171 -0.012026359
0000e0 06 bf 18 3d f8 7f 27 3c ee fc bf bb 7d 68 0b 3d
       0.03729155 0.010223381 -0.005859009 0.034035195
0000f0 5d 82 74 3c d4 12 3a 3a 70 a2 f0 3b f1 d9 dc 3c
       0.014923659 0.00070981425 0.007343583 0.026959391
000100 68 1c 5d 3d 2a c1 91 3c 32 c1 b0 3b 79 15 15 3d
       0.05398217 0.017792303 0.0053941244 0.03639743
000110 f9 d4 20 3d 2c 5c 94 bc 17 8b 32 3d e2 0d 07 3d
       0.039265607 -0.018110357 0.043589678 0.032972224
000120 12 f8 5f 3d a9 97 f5 3a bb 48 81 3c 33 8d 1e 3d
       0.054679938 0.0018737215 0.01578175 0.038708877
000130 2c cd 0f bc 5a 3f 52 3d 0e ef 69 bb cb ae 8e 3d
       -0.008776944 0.051329948 -0.0035695466 0.06966933
000140 f5 c3 4d 3d c9 0f 90 3b 75 b0 67 ba a6 6a 35 3d
       0.050235707 0.004396413 -0.0008838245 0.04429116
000150 70 8e 83 3d c8 9b 5d 3c 2c f9 b6 39 72 42 3d 3d
       0.06423652 0.013525911 0.00034899393 0.046205945
000160 42 fa ad 3b a8 54 77 bb df 32 77 3d 7d 1b 89 3b
       0.005309374 -0.0037739668 0.06035125 0.004184185
000170 fb 33 f3 3b b8 5e 53 bb 68 3d 27 3c b0 ff 22 3d
       0.007421968 -0.0032252502 0.0102075115 0.039794624
000180 2b 6c 36 3d 04 d0 c7 3c 0d 83 68 3d 40 7e 82 3b
       0.04453675 0.024391182 0.056765605 0.0039823353
000190 29 91 e1 3c 4d 35 58 3d a3 14 38 bc 2b 94 bd 3c
       0.027535038 0.052785207 -0.011235389 0.023141941
0001a0 18 08 40 bc 93 0e 20 3c 9f 6f de 3c 24 0b d0 3c
       -0.01172068 0.0097691 0.027152834 0.025395937
0001b0 7c c4 6c 3c a9 59 a5 3c 2e c1 30 bc c9 26 68 3c
       0.014451142 0.020184355 -0.010788245 0.014169403
0001c0 88 e9 88 3c 41 74 3c 3b 62 3b 93 3c 5e b5 98 bb
       0.016712919 0.0028755816 0.017972652 -0.0046602925
0001d0 db 5c e5 3c d6 ee ea 3c 9e 8f f4 3c 8c ab ef 3c
       0.027998379 0.028678339 0.029853638 0.029256605
0001e0 dd e2 5a bc 4e f0 e2 3b 81 1f 36 3d ab b2 94 3d
       -0.0133597525 0.006925619 0.04446364 0.07260641
0001f0 a2 4c 86 3d c0 62 34 bc f0 98 9a 3c 9a ea 8b 3c
       0.06557585 -0.011009872 0.018871754 0.01707964
000200 89 0c 6c 3d 78 76 a7 3c 39 ed 18 3d be dd 23 3c
       0.057629142 0.020442232 0.03733561 0.010001598
000210 d4 63 ea bb 2d f4 22 3d df a1 91 3d 21 3c 78 3c
       -0.0071530137 0.039783645 0.071109526 0.015151055
000220 a2 5a 01 3d 00 35 af bb b2 37 0f 3c bf d9 2a 3d
       0.031580575 -0.0053468943 0.008741306 0.041711565
000230 db 42 5f 3d b3 23 32 3d 5a b8 80 3b 48 f2 09 3d
       0.054507118 0.043491077 0.0039282264 0.033678323
000240 83 07 35 3d bf 6a 14 3d 30 ee 2a 3d 25 c7 87 3c
       0.044196617 0.036234614 0.04173106 0.016574452
000250 ac 1b da 3c ab 18 8a bc a7 00 9c 3c ba 79 6c bc
       0.026624523 -0.016857466 0.01904328 -0.014433319
000260 82 b3 36 bc b3 a7 3e 3c a7 15 88 3d 34 7b 65 3d
       -0.011151196 0.011636662 0.06644755 0.0560257
000270 1c ac 3b 3d e6 39 48 3a 1c 6c b9 3c 25 14 f2 3c
       0.045818433 0.0007638022 0.022634558 0.029550621
000280 48 ef 30 3d 67 06 40 3d fd 1b 04 bb d4 ff 5a 3b
       0.043196946 0.046881106 -0.0020158284 0.0033416646
000290 28 70 3d bc f7 a4 7c 3d 08 8d 0d 3b fe bf 56 3d
       -0.011562385 0.06168076 0.0021598954 0.05242919
0002a0 a6 82 92 3d e7 7e 75 3d f9 1a 5f 3d e5 a4 03 3d
       0.071538255 0.059935477 0.054469083 0.032139678
0002b0 14 ec 2e 3d 03 e5 a7 3c a3 0d a0 3c e9 44 87 3d
       0.04270561 0.020494943 0.019537752 0.066049404
0002c0 f3 e2 34 3d 0a b8 e3 ba c2 35 0b 3d 94 6c b0 3c
       0.04416175 -0.0017373574 0.033986814 0.02153615
0002d0 bf 6e 7a bc 19 16 53 3d e6 f6 08 3d 68 5b 27 bb
       -0.015285193 0.051534746 0.033438586 -0.002553666
0002e0 14 c5 11 bc 73 87 04 bc 4f a0 21 3b 4d 12 23 bc
       -0.008897085 -0.008088934 0.0024662202 -0.009953094
0002f0 cf a7 44 3d bd 07 ec bb e2 50 1a bc 6c 84 00 3d
       0.048011597 -0.007203071 -0.009418698 0.031376287
000300 46 31 87 3d aa 31 83 3d 84 7d 00 3d 42 35 85 3c
       0.06601195 0.06405957 0.0313697 0.016260747
000310 69 ac 27 3c 93 e7 3e 3c 6d e0 b6 ba 56 a2 7f 3d
       0.010233977 0.011651891 -0.0013952382 0.062410675
000320 55 8a f1 3c f0 ed 17 3a 45 3b 40 3c 3f be 4c 3d
       0.029484907 0.00057956483 0.011732881 0.04998612
000330 5a 19 c7 3b 21 1a dc 3c 8c 32 02 3c 20 39 7d 3d
       0.00607602 0.026867928 0.007946622 0.061822057
000340 a9 10 82 3d 43 7e 96 3c d7 d7 0e bb fb fd 50 3d
       0.06350834 0.018370753 -0.002179613 0.051023465
000350 2a 93 22 3c dd 46 b5 3c 40 2f fd 3b dd dc c5 3c
       0.009922782 0.022128517 0.00772658 0.024153167
000360 0e 6e 35 3d 01 94 30 3d cc 7e 26 3c 57 d4 b0 3c
       0.04429441 0.043109898 0.010162067 0.021585627
000370 b4 fa 58 3b d6 35 93 3c eb 66 6e 3c dc 39 bd 3c
       0.0033108415 0.017970007 0.014550905 0.023098879
000380 68 d4 8b 3d 1f f8 87 3d 6f 4e 15 3b dd 84 03 3c
       0.06827623 0.06639122 0.0022782346 0.008027283
000390 41 74 27 3d 06 68 3d 3d 24 14 1c 3c af 1b 9d ba
       0.040882353 0.046241783 0.009526286 -0.00119864
0003a0 b3 39 f1 3c c5 4b 90 3d 4a 7b 45 3c 98 9b bf bc
       0.029446458 0.07045702 0.01205332 -0.023389623
0003b0 81 1b bb 3a ef 0c 88 3d 44 73 42 bb af 4f e4 3c
       0.0014275165 0.06643092 -0.0029670754 0.027870027
0003c0 e1 3c 68 bd 36 c8 e8 3b ad 32 08 3d a3 ea 67 bc
       -0.056698684 0.007103945 0.033251453 -0.014155063
0003d0 d7 0b a1 3c 69 61 86 b9 f1 62 31 3d 29 6f 8c 3d
       0.019658966 -0.00025631048 0.04330725 0.068571396
0003e0 f3 02 78 3c 6a fc d3 3c 01 a7 11 3d 1d 05 e7 bb
       0.015137422 0.025877196 0.035559658 -0.00705017
0003f0 b4 77 85 3d 50 4e 0f bb 32 e6 75 3c b4 e4 ff 3c
       0.06516972 -0.0021866746 0.015008496 0.031236984

fc.0.bias f4 [64]
000000 56 81 87 3d 8a 1c b2 bb 4d b1 0c 3d cd 36 0d bd
       0.06616466 -0.005435531 0.034348775 -0.03447609
000010 4f 8b fe 38 3d 95 5f 3c 75 a7 6f bd cf 18 8d 3c
       0.00012137612 0.013646421 -0.05850931 0.017223744
000020 ba d3 4d 3d b7 b2 29 3d 1f 76 6a 3d 94 ed 14 3b
       0.050250746 0.0414302 0.057241555 0.0022724615
000030 a2 bd 59 bd bd 75 fd 3b 2d 69 cd ba 78 b5 79 ba
       -0.053159364 0.0077349828 -0.0015671604 -0.0009525637
000040 e6 06 0c bd 9d f0 33 3b 54 ef 18 3d f4 a1 12 3d
       -0.034186266 0.002745665 0.037337616 0.03579898
000050 d5 e3 38 bb a4 72 0e bb 2f 68 3f 3d 7d 9e 8e 3d
       -0.002821197 -0.0021735812 0.046730217 0.06963823
000060 77 80 5b 3d ea 89 64 bb 28 0a 02 3d 24 54 5e bd
       0.05358931 -0.0034872242 0.031747967 -0.05427946
000070 74 76 02 bc 06 88 0b 3d 83 80 57 bc 62 ce 2d bd
       -0.007962812 0.03406527 -0.013153198 -0.04243315
000080 8e af bd 3c 3f a4 70 3c 4b 24 35 3c b3 52 6c 3a
       0.023155 0.014687597 0.011056016 0.00090150087
000090 78 5d 6c bc 22 45 20 bc a2 83 1a bd ef b5 30 3d
       -0.014426582 -0.009782108 -0.03772319 0.043142255
0000a0 23 15 14 bd 0b e0 6c 3d db 0c 35 3d f5 b7 91 bd
       -0.03615297 0.05783085 0.044201713 -0.07115165
0000b0 c7 24 64 3c 31 09 41 3c a9 c5 e7 bb 56 da 00 3d
       0.013924784 0.011781977 -0.0070731235 0.03145822
0000c0 2c 95 d1 3a 40 33 88 3b 18 de 4a 3c 4b 1f 99 3c
       0.0015989891 0.0041565 0.012382053 0.01869168
0000d0 4d a4 90 bc 1b de 56 3c 59 a3 a7 3c 4b ec 1f bd
       -0.01765647 0.0131144775 0.020463632 -0.039043706
0000e0 45 34 65 bd a7 10 ae 3c 5f ec b5 3c 82 2f 35 3d
       -0.05595805 0.021248175 0.022207437 0.04423476
0000f0 3f f6 20 3a 68 ac 83 bd 39 b9 6b 3c 06 ed 05 bd
       0.0006140209 -0.06429368 0.014387422 -0.032696746

fc.2.weight f4 [10, 64]
000000 70 cf 2e 3d ce 04 cd 3d ab b4 bd be 53 a9 bb 3d
       0.042678297 0.10010682 -0.370519 0.091631554
000010 db 4b 05 3c 8b 72 21 bb 32 e0 7c bd 8d 3c 08 bf
       0.008135761 -0.0024634923 -0.061737247 -0.53217393
000020 a0 e6 e9 3d 13 58 c0 be 01 73 2b 3e 4c d7 1b 3f
       0.11420941 -0.37567195 0.1674309 0.6087539
000030 ca 05 8c bd 0e 74 9d bd 4e 8b d4 be 91 07 a0 bd
       -0.06837042 -0.07688151 -0.4151253 -0.07813943
000040 fe c7 95 3e 40 23 91 3d c0 9a 80 bd 48 a5 23 3e
       0.29254144 0.070868015 -0.06279516 0.15981019
000050 07 2f 09 3e 7a 15 fd be 3d d1 79 3d 37 b2 17 3e
       0.13396846 -0.49430448 0.06099056 0.14814077
000060 76 47 23 be fa 76 2e 3e a3 db 22 bc 16 16 b3 bd
       -0.15945229 0.17037573 -0.009940061 -0.08744447
000070 b0 f6 98 3d ce 27 03 bf 2a 73 d4 3e bb c8 fc 3c
       0.07468927 -0.5123261 0.41494113 0.030857434
000080 88 f7 21 3f 1e 8b 69 bb c3 ca 2d 3e 09 69 05 3f
       0.6326833 -0.0035635899 0.16971879 0.52113396
000090 40 d2 9b be 81 20 60 be 00 0f 8d 3e 95 7c fb 3d
       -0.30433846 -0.218874 0.27550507 0.122796215
0000a0 1e 8a 01 bf c1 41 d7 3d 5e 13 2e 3f a1 59 bb bd
       -0.50601375 0.105105884 0.679983 -0.09147955
0000b0 e1 89 4c be d5 62 e8 3e 11 86 82 bd 6d ee f9 be
       -0.19974472 0.45387903 -0.063732274 -0.48814717
0000c0 bb 8f eb 3e 43 2c 8e 3e 7c 72 9e be 1a b6 18 bf
       0.46008095 0.27768144 -0.3094672 -0.59652865
0000d0 78 65 b1 3e 22 97 c3 3d e3 65 1e 3f 38 8c 6b bd
       0.34647727 0.09550311 0.61874217 -0.05750677
0000e0 f2 70 9b bd 46 54 c9 3d 85 02 10 be c7 30 07 3e
       -0.07589902 0.09830527 -0.14063461 0.13202201
0000f0 39 28 ae bc 5b 70 00 3e 10 1a 99 be f4 a3 38 be
       -0.021259414 0.1254286 -0.29902697 -0.18031293
000100 ee e0 07 3e 17 89 42 3e 4b 11 17 3f 04 63 12 bc
       0.13269398 0.18997608 0.5901076 -0.00893474
000110 21 a6 b4 3d 45 6a 63 3d 0d 74 b6 bd dd f9 86 bf
       0.08820749 0.05552127 -0.08908854 -1.0545002
000120 4f b5 2b 3e 38 39 3d bf 29 17 e1 3d 91 98 c2 be
       0.16768382 -0.73915434 0.109907456 -0.38007024
000130 63 6f c4 bd 6c 4e 2b bc 04 04 4a 3f 5e d3 40 be
       -0.09591558 -0.010455709 0.7891238 -0.1883063
000140 13 4a 8f be d3 33 59 bd 6f 12 55 bd c7 61 cf 3d
       -0.27986202 -0.05302794 -0.052019533 0.101260714
000150 7f 23 1f 3e f3 72 90 be ff 23 16 3c 56 43 85 3c
       0.15540884 -0.282127 0.009163856 0.01626746
000160 80 c5 45 be 34 a8 5f bc 2f b7 74 3d f5 de 3f 3c
       -0.19313622 -0.013650943 0.05974501 0.011710872
000170 15 48 1f 3e 40 5b f1 be 69 d1 c8 be df d1 51 bc
       0.15554841 -0.4713993 -0.39222267 -0.012806385
000180 5e bb 0d bf cb 06 92 3d 93 f7 72 3d e3 4b 0d bf
       -0.55364025 0.07130202 0.059318136 -0.5519392
000190 ec a8 f3 3e 13 74 ca be 3f 4f b2 3e cd 82 aa 3c
       0.47589815 -0.39541683 0.34826085 0.020814324
0001a0 32 10 9e be 1b d6 62 3e d4 0e 6a be a3 4c 0c 3d
       -0.3087173 0.22151987 -0.22857219 0.034252774
0001b0 df 27 8f be 67 ed 1f be 3d 8d 51 bd 70 f3 c6 be
       -0.27960107 -0.15617906 -0.051160086 -0.38857603
0001c0 1a f7 15 bf 60 34 ba 3e 68 4d f9 be c7 69 0b 3f
       -0.5858017 0.36368084 -0.4869187 0.5445828
0001d0 09 15 b7 3e af a0 24 3e 8b a9 a2 be 9e bd eb 3c
       0.35758236 0.16076921 -0.31769976 0.02877694
0001e0 b2 f3 50 3d 35 ad 54 3e 2d cc 2b be 8b 8d 03 3e
       0.051013656 0.20769198 -0.16777106 0.12846963
0001f0 ba fb 8a 3d 3f d4 81 3d fb b8 a3 be d1 71 e0 be
       0.06786294 0.06339311 -0.31977066 -0.43836835
000200 59 fb 83 3d 4c ef 16 3e b5 c8 87 bf ac ba bb 3c
       0.06444425 0.14739722 -1.0608126 0.02291616
000210 fe 23 b6 3c 5e af 7c 3d 41 35 c3 3b 98 8c 85 3e
       0.02223396 0.06169068 0.005957276 0.26083827
000220 2c a5 5a 3e ad 67 30 3f ea 1a 2b 3e 48 1b 32 bf
       0.2135207 0.68908197 0.16709486 -0.6957288
000230 d0 45 83 bd 9f 73 0c be 08 fa 90 bf 54 52 1e be
       -0.064098 -0.13715981 -1.1326303 -0.15461093
000240 2d 46 0c 3f 4b ab e8 bd 23 31 43 be 80 67 0f 3e
       0.5479458 -0.113607965 -0.19061713 0.14004326
000250 4f bc e7 3d 32 f3 35 bf b7 fa d1 3d df 45 7e 3d
       0.11315214 -0.7107421 0.10252898 0.062078353
000260 83 1e c9 be 8f 6a 71 3e 92 91 1b 3e 25 d9 93 bd
       -0.3928109 0.23575805 0.1519225 -0.072191514
000270 4b 8c 40 3d 0c 0e fd be 47 76 0c bf f2 88 14 3d
       0.047008794 -0.4942478 -0.54867977 0.036263414
000280 a0 44 05 bf e6 6c 07 bd 59 4c 36 3e ee ba 28 bf
       -0.5205784 -0.033062838 0.17802562 -0.6591023
000290 91 8a d9 3e 91 79 06 bf ed 43 e5 3e 88 4f 51 3e
       0.4248853 -0.52529246 0.44778386 0.20440495
0002a0 7b 31 f0 be 4a 7d 6b 3e a9 de 00 bf 46 dc ad 3c
       -0.4691275 0.22997013 -0.5033975 0.021223199
0002b0 e6 3d d8 be 32 e9 83 be ba 5d f3 bd 25 e3 0b bf
       -0.42234725 -0.2576385 -0.11883111 -0.5464347
0002c0 4c 05 ec be 6c 3f af 3e e5 b6 e6 be c1 61 a9 3e
       -0.4609779 0.34228075 -0.45061412 0.33082393
0002d0 3c 39 df 3e 12 e9 e2 3d 8b cd e2 be 8a 47 bc bd
       0.43598354 0.11079611 -0.44297442 -0.091933325
0002e0 3f 24 d5 bc b8 d2 7c 3d 35 3a a6 be 69 69 eb 3c
       -0.02601826 0.061724395 -0.32466283 0.028736787
0002f0 ca dc 60 bd df 5e e8 3b 42 5b cd be a6 a3 2a bf
       -0.05489806 0.0070913876 -0.40108687 -0.6665596
000300 fb cf 7d 3d bd 86 30 bc 4e cb ec 3e 14 37 60 3c
       0.061965924 -0.010774312 0.4624886 0.013685007
000310 86 d3 32 3d a7 76 49 3d 0a 19 ef bc 3a 70 a8 3e
       0.043658756 0.04918542 -0.029186744 0.32898122
000320 33 bf d9 3d ae 57 79 3e 5e ca 15 3d ce e1 a1 be
       0.106321715 0.24349853 0.036569946 -0.31617588
000330 4a a2 20 bd cc 62 8c 3d 7a a5 ef be 1a 32 63 be
       -0.03921727 0.068547815 -0.46805936 -0.22187081
000340 45 49 87 3e 4b 57 9b bd 9a 15 77 be b7 72 dd bb
       0.26423088 -0.07585009 -0.24129334 -0.00675806
000350 c7 89 8d 3e e0 18 be 3e a4 5a a2 3d 8d 9f 2e 3d
       0.27644178 0.37128353 0.079274446 0.04263263
000360 a8 30 8e be f7 4b 67 3d 5a 54 ab 3d b3 84 c7 3b
       -0.27771497 0.05646893 0.08365698 0.006088817
000370 d7 ee 1e 3d df 5f c1 be 98 68 0e be 0b ee 87 bd
       0.038801994 -0.37768456 -0.13907087 -0.066372
000380 8b 2b ce 3e 8d ac 30 3c a1 ef f2 3b fa c4 8a be
       0.40267596 0.010783327 0.00741382 -0.27103406
000390 dc 1c c1 3e 90 c3 d8 3e c8 7f d6 be de 1e 4d 3d
       0.3771733 0.42336702 -0.41894364 0.050078265
0003a0 87 da 94 be 0c 6a f8 3d 96 5f 89 be 28 5b a9 3d
       -0.29072973 0.12129602 -0.2683074 0.0826934
0003b0 39 46 f2 3e 5b e8 66 be 92 c5 56 bd 32 e3 cb be
       0.473192 -0.22549574 -0.05243451 -0.39821774
0003c0 cd 15 d5 be b7 17 d5 be 1e 8b e7 3e 84 d0 c1 3e
       -0.41618195 -0.41619655 0.45223325 0.37854397
0003d0 d0 d5 d5 be 0f a1 9f 3d 44 1b 02 3f 39 16 4d bd
       -0.41764688 0.07794391 0.50822854 -0.05007002
0003e0 75 d7 bd bd 8b 11 bf 3d d7 2e dc 3e e2 b3 94 3d
       -0.09269611 0.09329518 0.43004486 0.072608724
0003f0 58 cb 64 bd 27 06 88 bd d8 16 66 be 2f dd e4 3e
       -0.055857986 -0.066417985 -0.22469652 0.447

fc.2.bias f4 [10]
000000 43 7a c1 3d 65 06 5b 3e ea 65 f8 3c ee 5c d0 bb
       0.09447148 0.21389158 0.030322034 -0.0063587343
000010 56 39 50 bc 0a d7 60 be 49 c2 be 3b 87 5e ea 3d
       -0.012708982 -0.21957031 0.0058215004 0.11443811
000020 0d 11 a5 bd d9 45 05 bd
       -0.08059893 -0.032537315

onnx::Conv_184 f4 [4, 1, 3, 3]
000000 c4 e3 22 3a 56 db 79 3b 7e 8a d4 3b fb 30 cf b9
       0.00062137493 0.003812512 0.006486236 -0.0003951861
000010 b5 c0 81 bb d4 c7 eb 3b ee 28 28 bc 15 ae a3 ba
       -0.00395974 0.007195452 -0.010263665 -0.0012487794
000020 8a 7f 0a bc aa c3 37 bb 8e ba c8 3a 77 ea 82 3b
       -0.008453259 -0.002804021 0.0015314387 0.0039952355
000030 f5 fc c7 3b 03 0a 92 bb 75 18 dd 3b 6c c4 5c 3b
       0.006103153 -0.00445676 0.0067473003 0.0033686412
000040 c7 e8 28 bb 7f 35 e8 3a a7 ae 25 3a 72 10 0b bc
       -0.0025773512 0.0017716138 0.0006320276 -0.008487808
000050 ae 90 05 bb 87 63 25 bc 6e 86 e6 3a db 3c 38 ba
       -0.0020380425 -0.01009453 0.0017587671 -0.0007028111
000060 1c 43 d5 3a fa de d2 3b fc 88 8c ba 2b fe ba bb
       0.001627061 0.0064352723 -0.0010721977 -0.0057065687
000070 64 2a 48 bb 19 95 e7 3a f2 70 8c 3c b3 c7 90 bb
       -0.0030542845 0.0017668336 0.0171437 -0.0044183373
000080 d0 27 1a 3a 5a a2 3f 3c 74 bd 70 bc 24 5e 94 bb
       0.00058805663 0.0116964225 -0.014693607 -0.004527824

onnx::Conv_185 f4 [4]
000000 5d c2 44 3f 3e d7 cf bf ac 7a c1 3f c2 a0 95 3e
       0.76859075 -1.6237562 1.5115561 0.2922421

onnx::Conv_187 f4 [8, 4, 3, 3]
000000 d8 82 f0 bd f1 8b 7f 3d df 8b d4 3d 0b b1 73 3e
       -0.117437065 0.062389318 0.10378241 0.23798005
000010 91 ea 06 3d fd e2 23 3e 80 ea 67 3e 7a 58 78 3e
       0.032938544 0.16004558 0.22648048 0.24252501
000020 39 a3 b3 3d 83 2a 56 3e 17 d5 27 bd 6b 34 aa 3e
       0.087713666 0.20914654 -0.040974703 0.33243117
000030 5c 6d 0a 3e dc 01 af bd 27 96 9f 3e 2e ca 4c be
       0.1351828 -0.085452765 0.31169245 -0.19999
000040 56 1a 63 bc 06 5b 82 3e 6a 57 a9 bd 7e ca 09 3e
       -0.013861259 0.2546007 -0.08268626 0.13456151
000050 ed 83 20 be ed 39 39 3e 98 7c bc bd 8e 26 9a be
       -0.15675326 0.18088503 -0.09203452 -0.3010754
000060 b1 db 47 be ef 7a b2 3d fe 3a bc bd 88 b6 ea bd
       -0.195174 0.08714854 -0.09190939 -0.11460596
000070 99 0a 05 be 8d 40 e5 bc 69 40 33 be ef f7 fc 3d
       -0.12992324 -0.027984882 -0.1750504 0.12351977
000080 5a ee 81 bd fb 1d 71 bd 67 f9 e3 bd a9 2b 27 be
       -0.0634429 -0.058866482 -0.11131554 -0.16325249
000090 40 07 28 bd 6d 13 98 3c c7 7c 72 be 31 9c 1f 3d
       -0.04102254 0.01856395 -0.23680411 0.038967315
0000a0 4b 7a a4 bd 30 20 d9 3d 23 68 52 3e 06 b2 9a be
       -0.08031138 0.106018424 0.20547538 -0.30213946
0000b0 26 ea 00 be b2 cc a8 bd eb 10 0c bc 77 3d b6 be
       -0.1258932 -0.082421675 -0.008548955 -0.3559377
0000c0 2d 3d a7 bc 8e 4c ab be 62 1f cf be a5 76 f1 3c
       -0.020414913 -0.33456844 -0.4045363 0.02947552
0000d0 7e 26 15 bd 7f 72 d5 3d 08 ac 25 be fd 6e 56 be
       -0.036413662 0.10422229 -0.16178906 -0.20940776
0000e0 e3 c5 a5 3e 29 ac 56 be fb 41 b5 3e 1f 3d 4a 3e
       0.32377538 -0.20964111 0.35401902 0.19749878
0000f0 28 ff 28 be 97 d8 aa 3d 36 4a 56 3e 1b a0 92 3e
       -0.16503584 0.083420925 0.20926747 0.28637776
000100 0e 22 08 3e d9 96 38 bd 63 17 94 bc 5b 80 51 3e
       0.13294241 -0.045065735 -0.018077558 0.2045912
000110 ed 19 98 3e 6f 87 a5 be 5d 7d 8d 3a be 55 6b 3e
       0.2970728 -0.3232989 0.0010794807 0.22981927
000120 78 4c c8 be 32 84 e8 bd c6 ce 28 3e b4 8c 67 be
       -0.3912084 -0.11353339 0.16485128 -0.22612268
000130 21 a1 d7 bd dd e2 74 3e b6 0a 1e 3e e5 e9 c0 3e
       -0.1052878 0.23914666 0.15433773 0.37678447
000140 83 e3 8e 3e 4f c8 c0 3e 3e d8 cf 3e db 19 65 3e
       0.27907953 0.37652823 0.40594667 0.22373144
000150 30 25 22 3e 49 a8 9a 3e f0 6b 3e 3e f8 0f 87 3e
       0.15834498 0.30206516 0.18595862 0.2637937
000160 b0 77 77 bd 03 1b 47 bb 70 d9 c5 bd f6 93 3c 3e
       -0.060416877 -0.003038109 -0.096606135 0.18415818
000170 0b 24 11 3e ff 1e e1 3d 12 ac 3e 3e 1e 7c 0b 3c
       0.14173906 0.1099224 0.18620327 0.008513479
000180 eb 4b 33 3d 0b c5 b9 bd 5e 3b e3 3d fa 1b 5d 3e
       0.043773573 -0.09070786 0.11095308 0.21592703
000190 e5 e6 8d be 1b 9b 69 bd 0f 2e 30 3e c0 3c 80 bd
       -0.2771522 -0.057032686 0.1720507 -0.06261587
0001a0 e0 b4 13 3d bd 2e 30 be f6 f9 15 3e b0 c5 65 be
       0.036061168 -0.17205329 0.14646134 -0.22438693
0001b0 a3 41 c7 bd 35 e0 18 be d7 46 14 3d 49 9c 66 3d
       -0.09729316 -0.14929278 0.03620037 0.05630139
0001c0 d9 77 27 be 5a 71 4b 3d 81 f3 ad 3c f9 ed 97 bc
       -0.16354312 0.049668647 0.021234276 -0.018546091
0001d0 03 82 c0 bd 92 f9 77 3c 7f 6d 5d 3e 01 4e 5d 3e
       -0.09399798 0.015135186 0.216238 0.21611787
0001e0 df 6e 6c 3e c3 75 02 3e db a9 bf bd e1 c0 9c bd
       0.23089169 0.12740235 -0.09358569 -0.07653976
0001f0 b6 de ed 3d 07 d0 e9 3d 5d 1e 67 3b ff 5b 5b be
       0.11614744 0.11416631 0.00352659 -0.21421812
000200 eb 9c ce bd ab ea 8f 3d 19 1e 97 be 0c 29 79 be
       -0.100885235 0.07027181 -0.2951515 -0.24332064
000210 0e 55 6e be 7d 8e bf bd 1c 01 00 be 40 8e eb 3d
       -0.23274633 -0.09353349 -0.12500423 0.115017414
000220 e1 21 2c 3e c5 ee b0 bd fd a6 fd 3d 55 a9 44 3e
       0.16809799 -0.08639292 0.12385366 0.1920522
000230 10 fa 99 3d 62 7f d3 3c 75 2f 13 3e 6f 84 36 3e
       0.07518399 0.025817577 0.14373572 0.17823957
000240 03 4f c1 3d 94 c7 e2 bd 36 e3 f9 3d 85 1e 5f 3e
       0.094388984 -0.11073223 0.1220154 0.21788986
000250 b1 82 6d be b0 8e ed bd 87 a1 bf bd cf 06 8c be
       -0.23194386 -0.11599481 -0.09356981 -0.27348945
000260 dc a8 74 be 3a 86 97 bc 41 8e a6 be fb f7 4a 3e
       -0.2389254 -0.018496621 -0.32530406 0.1982116
000270 bd 95 4f be 64 d8 75 be ff 73 42 bd ec 89 e8 3d
       -0.20271964 -0.24008328 -0.047473904 0.113544315
000280 6f 77 12 3e 45 56 4f 3e a9 75 9b be 71 71 a2 bd
       0.14303373 0.20247753 -0.30363205 -0.079317935
000290 0f ec 22 be c3 3a 80 be 74 ad 92 bc 85 9a 74 3e
       -0.15910362 -0.25044832 -0.017904975 0.2388707
0002a0 08 57 11 bd ed 48 e9 3e 3b 2a b5 3e 93 3a 1d 3d
       -0.03548339 0.4556345 0.35383782 0.03838594
0002b0 cf 07 04 bf b8 1e 92 3e 93 ad f0 be 74 cb 0a bf
       -0.51574415 0.28539062 -0.47007427 -0.54216695
0002c0 ff f9 3c 3d 48 cd 81 be ff 74 57 be 93 56 da 3c
       0.046136852 -0.2535193 -0.21040724 0.02665261
0002d0 d2 53 06 be 15 3a 43 be c0 f9 93 3e 77 b1 c5 be
       -0.13117912 -0.19065125 0.28901482 -0.38611957
0002e0 5c 54 3d 3d 35 7a 62 3e 26 a4 0a be d8 19 cc 3d
       0.04622303 0.22116931 -0.1353918 0.09965867
0002f0 41 02 be 3e ef d6 5e be 29 c5 61 be 32 13 d0 3d
       0.37111095 -0.21761678 -0.22047867 0.10159911
000300 16 32 3c be fd 72 43 3e cd ea 9d bc 99 96 69 bd
       -0.18378481 0.19086833 -0.019277 -0.057028387
000310 6f 45 38 be 5b b4 e1 bd 3c 0f ab bc 62 ad 6f 3e
       -0.17995237 -0.11020728 -0.020881288 0.23405984
000320 90 47 04 bd 38 c5 66 3e 8d 9e 1f bd 38 14 ee 3d
       -0.03229481 0.2253617 -0.038969565 0.1162495
000330 9c 13 6b 3c 8d 04 c4 3e 94 3d 68 3e ce eb 9c be
       0.014347937 0.38284722 0.2267974 -0.30648655
000340 89 d2 2f be 16 54 08 be 90 13 00 bd d9 09 2e bc
       -0.17170157 -0.13313326 -0.031268656 -0.010622465
000350 8d f0 95 bd 99 08 73 3d 76 72 98 3e 40 4d a9 3e
       -0.07321272 0.05933437 0.29774827 0.3306675
000360 42 33 a1 3e a3 3b 1b 3c 2e f9 f8 bc 6b fc c1 3e
       0.3148442 0.009474668 -0.030392256 0.37887892
000370 59 97 6c 3e 5e a9 8f 3e 1f a1 27 be ad 42 9d bd
       0.2310461 0.28058904 -0.16370057 -0.07678733
000380 46 1d 88 3e 8a ed 87 be ae b4 74 3d 2f c6 f4 3e
       0.26584834 -0.26548415 0.059742622 0.47807452
000390 40 d8 af be 01 a3 d2 3e dc 6a d8 3d 3f 06 20 3e
       -0.34344673 0.41139987 0.10567257 0.15627383
0003a0 0c 53 99 3e c2 aa 5b 3e 6c 85 62 3d 20 8c 2e 3e
       0.29946172 0.21451858 0.055303022 0.17045641
0003b0 8c 8f 64 3e 34 cc 4c 3e 8b ac ac be e8 95 9a be
       0.22320384 0.19999772 -0.3372539 -0.30192494
0003c0 24 03 98 3d 83 73 5d be de 71 0d be a6 3c 95 3e
       0.07422474 -0.21626095 -0.13812968 0.29147834
0003d0 5d 63 ff be 19 35 15 bc 95 35 83 bd 58 66 01 bc
       -0.49880496 -0.009106898 -0.06406704 -0.007897936
0003e0 18 99 a2 bd a8 42 f1 3d dd 02 96 be 87 4b 3c be
       -0.079393566 0.11780292 -0.2929906 -0.18388186
0003f0 6a aa 38 bd 06 66 60 be 95 d6 3b be ba 1d 06 3d
       -0.045084395 -0.21913919 -0.18343575 0.032743193

onnx::Conv_188 f4 [8]
000000 41 49 8f be 7d 02 75 3e de 44 a6 bf 48 de 75 3e
       -0.27985576 0.2392673 -1.2989767 0.24010575
000010 ea a7 42 3f 06 3c 83 be 1c 0a b5 be 8f 3e 60 3e
       0.76037467 -0.25631732 -0.35359275 0.21898864

onnx::Conv_190 f4 [4, 8, 1, 1]
000000 20 76 09 bf 66 fa 33 3f 29 7b a7 3e 3f 35 b0 3d
       -0.5369587 0.7030395 0.3271115 0.08603906
000010 a1 ec 49 be 0f 20 2c bf 0d 6f 65 bf cc 91 bb bb
       -0.19719173 -0.6723642 -0.89622575 -0.0057241675
000020 cb 83 ce 3e b9 b6 fd 3e dd 99 d4 3e 83 5f 26 bf
       0.40334925 0.4955347 0.41523638 -0.6498949
000030 b2 c8 40 3f 17 d4 e2 3e e9 ac b9 be a8 04 8d be
       0.75306237 0.44302437 -0.36264732 -0.27542615
000040 51 70 53 bb 34 ca 82 be 22 cb 2b 3f 07 3e 5c bc
       -0.003226299 -0.25544894 0.6710683 -0.013442523
000050 20 bb a5 be 61 1b 86 bd b7 84 cb 3e 56 cb d0 3e
       -0.32369328 -0.06548191 0.3974969 0.40780133
000060 49 3e 59 be f5 81 de 3e 88 d1 7d bb dd dd eb be
       -0.21215166 0.43458524 -0.0038729627 -0.46067706
000070 d5 a5 8d 3e 0c 44 7f 3e 52 32 b7 be 4d ed db be
       0.27665582 0.24928302 -0.3578058 -0.42954484

onnx::Conv_191 f4 [4]
000000 62 ea e3 3e bb 2e ae be 32 04 38 be 12 7b cc 3e
       0.44514757 -0.34020028 -0.1797035 0.39937645

onnx::Conv_193 f4 [8, 4, 3, 3]
000000 a3 2c 6b 3e c9 94 10 3e 31 2a 1a 3e 05 7d 40 3e
       0.22966246 0.14119257 0.15055157 0.18797691
000010 88 69 36 be 28 ec ab bd 28 a2 7d be 08 91 82 be
       -0.17813694 -0.083946526 -0.24768889 -0.25501275
000020 92 02 3d 3b 30 77 0e bd 1d b3 15 be 98 d5 05 be
       0.0028840643 -0.034781635 -0.14619108 -0.13069761
000030 ad 7b 81 3d 93 96 95 3a 6d e8 15 bd 95 3c bd 3c
       0.063224174 0.0011412672 -0.03659861 0.023100177
000040 b2 9f 8c bd 39 b8 26 bd 60 d1 a6 3e 1a 27 01 bd
       -0.06866397 -0.040703032 0.32581615 -0.03153143
000050 b6 0b 09 3e 60 35 c5 bd 11 70 4c 3e 40 18 00 3f
       0.13383374 -0.09629321 0.19964625 0.50037
000060 8f d7 8d 3d 7b a5 37 3d ee 93 34 3e cb d7 e5 bd
       0.0692588 0.04483555 0.17634556 -0.112228
000070 20 b9 fa 3c 2c b3 1a be 65 b7 3f be c1 41 d6 3d
       0.030605853 -0.15107411 -0.18722303 0.1046176
000080 ff bd 18 be fc 8d 04 3d 69 0a 4c 3e 2a 71 da bd
       -0.14916228 0.03236197 0.19925846 -0.106661156
000090 85 0e 58 be a3 e8 39 be cd d7 a1 3d 6a e2 d7 be
       -0.21099289 -0.1815515 0.07902489 -0.42164928
0000a0 01 ab 9e bc a7 d6 bf 3d 06 df df be cf 21 64 3d
       -0.01936865 0.093671136 -0.4372484 0.055696305
0000b0 4d d2 d3 bd 17 63 71 bd 27 fc 32 be 13 3b 90 bd
       -0.10342846 -0.05893239 -0.17479001 -0.070425175
0000c0 90 a8 67 be 85 4b 04 be 4d 23 fd 3d 57 a5 e7 bd
       -0.22622895 -0.12919433 0.12360249 -0.11310833
0000d0 c0 fc 9c 3d 83 71 9e bc e0 b4 94 bd 9c 10 39 3e
       0.07665396 -0.019341236 -0.07261062 0.18072742
0000e0 91 93 20 be 24 3b 97 3d a6 14 31 3e 65 a9 40 3c
       -0.15681292 0.07384327 0.17293033 0.011759137
0000f0 00 02 ac be ec 76 ca bd 16 5a 7d be 50 2b 85 be
       -0.33595276 -0.09885964 -0.24741396 -0.26009607
000100 13 3c 0f 3c 62 4f 01 be 5e 1d 88 bc e2 9d 96 be
       0.00874235 -0.12627938 -0.016615566 -0.2941733
000110 1c db 06 bc 06 05 be bd f7 2d 82 be 79 16 64 be
       -0.008230951 -0.09278302 -0.25425693 -0.22274198
000120 53 e5 24 3d 30 e8 dc 3e 58 53 4a bd 39 da 5f bd
       0.040257763 0.43145895 -0.04939589 -0.054651473
000130 0e 4b 1c be e0 42 9d 3e 18 a0 46 be 9e fe f4 3d
       -0.15263006 0.30715084 -0.19397008 0.11962627
000140 4b 94 9c bd 76 60 6b 3e cc 64 5c be 6f 44 b5 bd
       -0.07645472 0.22986016 -0.21522826 -0.08850943
000150 87 15 a3 3e 07 c2 e6 3d 1d 1a 5b 3e e9 a0 90 3e
       0.31852362 0.112674765 0.2139668 0.28247765
000160 48 f9 94 bd eb 63 7a be d7 25 11 3e 1e 85 1b be
       -0.07274109 -0.24452178 0.14174591 -0.15187499
000170 51 86 8e bd f6 e4 51 3e 33 59 8b 3e 62 97 e9 bd
       -0.069592126 0.20497498 0.2721649 -0.11405827
000180 02 ad 13 bd d2 ae 86 3e a2 6f e7 bd 37 b8 b9 3d
       -0.036053665 0.26305252 -0.11300589 0.09068339
000190 65 46 85 3e cb fa 97 3e d0 d9 91 3e 23 a7 ca bd
       0.2603027 0.29683527 0.2848649 -0.0989516
0001a0 5b 60 d2 3e ce d7 52 3d 45 3c ee 3d 1d c9 95 be
       0.41089138 0.05147534 0.11632589 -0.29255
0001b0 b6 fd 2b be e9 dd 20 be 11 f4 0e be b9 aa 3e be
       -0.16796002 -0.15709652 -0.13960291 -0.18619813
0001c0 dc 94 13 3e 54 49 f5 bc 0a 5b 57 3e e8 ad 9f 3e
       0.14412254 -0.029942192 0.21030822 0.31187367
0001d0 fa bf a7 be 73 1e 39 3d 68 e3 c9 bd 69 31 82 bd
       -0.32763654 0.045195054 -0.098578274 -0.063570805
0001e0 da d9 18 be 72 dd 98 be 91 99 38 be ed 83 32 3e
       -0.14926854 -0.2985645 -0.18027331 0.17433138
0001f0 c5 93 a9 bc 86 5e 28 bc 7e 3e 55 be 4b 93 2d bc
       -0.020700345 -0.010276442 -0.2082462 -0.010594199
000200 75 40 2e 3e 06 c8 83 bb 11 97 4e bc 7d 8a 81 bd
       0.17016776 -0.0040216474 -0.012609259 -0.06325243
000210 9f c0 e7 bd dc 30 20 3d 5a e4 8d 3c c6 e2 06 be
       -0.113160364 0.039109096 0.0173208 -0.13172445
000220 5e f4 6e be 98 61 46 3c 34 f9 8c be eb d1 8a be
       -0.23335406 0.012108229 -0.27533877 -0.2711328
000230 74 96 9a be e0 1a 92 be d3 14 9b 3d b0 59 00 be
       -0.30192912 -0.2853613 0.07572331 -0.12534213
000240 dd f3 10 3d e0 0b e0 3d 97 44 6b bd d4 ac 55 bd
       0.035388816 0.10939765 -0.05743846 -0.052166775
000250 85 cd 6d bd ab f3 7a 3d 6d de 10 3e 3b 5f d0 3d
       -0.058057327 0.061267536 0.14147349 0.10174414
000260 e8 b6 92 bd a3 05 ca bd f3 03 e8 b9 ea 83 dd 3b
       -0.07163793 -0.09864356 -0.0004425343 0.00676011
000270 ee 17 b8 3d b5 7f e7 3d b2 f8 31 be ec 3b 3e 3e
       0.08988939 0.11303655 -0.17380026 0.18577546
000280 9e ca b0 3d 22 9a dd 3d 42 de 1d be 53 ce 4f be
       0.08632396 0.10820414 -0.15416816 -0.2029355
000290 5c 5c a5 bd 18 b2 4b be b2 01 ff bd cd d6 0d be
       -0.08074257 -0.19892156 -0.12451495 -0.13851471
0002a0 56 1b 2c 3d 2d de 1e bd 29 c2 9f 3d ea 0e 1e 3d
       0.042018257 -0.038786102 0.07800705 0.038588442
0002b0 13 40 86 3d 31 8e 3c 3e da 4a 21 3e 9e d8 10 3e
       0.0655519 0.18413617 0.1575121 0.14145133
0002c0 b3 b5 94 3d 00 33 5e 3d e6 29 d2 3d ed 07 d9 3d
       0.07261219 0.054247856 0.10261898 0.10597215
0002d0 3f 48 7f 3e 0d d3 93 3e 34 c9 5a bd 7e bd 54 be
       0.24929903 0.28871956 -0.05341454 -0.2077541
0002e0 b3 27 ae 3d 95 81 51 bd f8 bc 86 bd 88 c1 6b 3e
       0.08503666 -0.05114897 -0.06579012 0.23023045
0002f0 07 11 c7 3e f8 a5 10 be 09 96 03 3e 9a b1 34 3d
       0.38880178 -0.14125812 0.12850203 0.044114687
000300 c6 64 f1 3c 14 a0 1c be d7 27 c7 be ae 58 28 be
       0.029466998 -0.1529544 -0.38897583 -0.16440079
000310 06 46 15 be 65 16 41 bc 57 d1 84 3e 12 0e c1 bc
       -0.14577493 -0.011785124 0.25940964 -0.02356628
000320 26 cc 8b 3e 12 e8 17 3e 30 bb 6f be 2a 71 84 3e
       0.2730419 0.14834622 -0.2341125 0.25867587
000330 9b e5 42 be 5c 57 05 bf e4 dd 89 be ba cf df bd
       -0.190329 -0.52086425 -0.26927102 -0.109282926
000340 7b c3 94 be d2 a0 9b 3d 8e 67 d1 bd ec 54 32 3d
       -0.2905539 0.075990334 -0.102248296 0.04353802
000350 85 f7 02 be f4 86 93 3e 71 0a ab 3e 78 8b e5 bb
       -0.12789734 0.288139 0.33406404 -0.0070051514
000360 1f 41 a9 3e ee 16 00 be 11 af fc bd e8 dc dd be
       0.33057496 -0.12508747 -0.12338079 -0.433326
000370 7d 22 55 3e 60 13 cd 3e 23 72 b2 3e a6 f9 bf 3c
       0.20813937 0.40053844 0.34852704 0.023434471
000380 e7 e2 ae 3e 2d cf ad 3d 3a d3 ac be 65 41 a9 3e
       0.34157488 0.08486781 -0.33754903 0.33057705
000390 82 52 49 3e 62 48 bc 3e 5a 8c 10 3f 41 8a 90 be
       0.1966038 0.36773974 0.5646416 -0.2823048
0003a0 ad 95 f8 3c 84 f5 05 3d 12 05 89 be 83 98 14 3e
       0.030344808 0.032704845 -0.2676168 0.14511304
0003b0 f5 03 38 bc f2 52 2f 3e ea a8 92 3e 10 95 8b be
       -0.011231412 0.17121485 0.28644496 -0.27262163
0003c0 90 71 ed bb e8 20 f2 bd ef cf ad 3e 43 57 08 3e
       -0.0072462037 -0.118226826 0.33947703 0.13314538
0003d0 20 b4 28 bb 4c 74 45 be ef 78 46 be c0 d6 9c be
       -0.0025742128 -0.19282645 -0.1938207 -0.3063259
0003e0 b1 8e 24 3f c5 56 5d 3e 40 3f 51 bd d1 da aa 3e
       0.6428023 0.21615131 -0.05108571 0.3337007
0003f0 52 ca d3 3e 7a ff 90 3d 02 67 65 bd 54 15 ca 3e
       0.41365296 0.07079978 -0.05600644 0.39469397

onnx::Conv_194 f4 [8]
000000 86 68 99 be 60 3d a0 3f e6 8b 87 bf 14 f2 87 3f
       -0.29962558 1.251873 -1.0589569 1.0620751
000010 fe d6 d1 be 76 0b ba 3d 0a 34 64 bf 94 a4 2b bf
       -0.4098434 0.09084217 -0.89141905 -0.67048

onnx::Conv_196 f4 [16, 8, 3, 3]
000000 16 f7 d3 bc 74 ec 79 3d 16 43 ff bc de cd e3 3c
       -0.025874656 0.061016515 -0.031159919 0.027808126
000010 d7 db 92 bd bd 15 c5 3d 1b 7c 5a bd bd 81 62 3d
       -0.071708374 0.09623287 -0.053341012 0.05529951
000020 45 1e a0 3d bc e4 10 3e b9 77 70 3d 3d 5d 0b 3d
       0.078182735 0.14149755 0.058707926 0.034024466
000030 61 e0 dc 3c 66 c7 16 bc 9e f0 cb bd 90 d9 d9 3d
       0.026962461 -0.009202814 -0.099580035 0.106372
000040 f8 37 df 3d 7c b9 c5 3d 27 92 3a 3d 25 e7 dd 3d
       0.10899347 0.09654519 0.045549538 0.10835103
000050 88 bb d0 3d 8c d0 80 3d 4b ff 21 bd cf 42 b6 3d
       0.10192019 0.06289777 -0.039550107 0.088994615
000060 26 07 b3 3d 28 17 84 3d d8 8d 11 bb aa 59 3f 3d
       0.08741598 0.06449729 -0.002220979 0.04671637
000070 a6 e5 96 3d 9b d5 94 bd a8 97 2a 3c df 24 f9 3d
       0.07368021 -0.072673045 0.010412134 0.12165236
000080 47 3b bd 3d 4b 23 ad 3d 34 bc 31 3d 73 81 08 3e
       0.09239822 0.08453997 0.043392375 0.13330631
000090 c6 50 e3 3c 7b 2c 68 3d aa bf 9c 3c f4 8c ca bd
       0.027748477 0.056683045 0.019134361 -0.09890166
0000a0 85 49 20 bc ed 20 d9 bc b5 9f f1 bd 54 f3 18 bc
       -0.009783153 -0.026504958 -0.1179804 -0.009335358
0000b0 de 7d 4a bc 32 c1 fd bb 01 04 b5 3c b2 7c 31 bc
       -0.012359111 -0.007743978 0.022096636 -0.010832952
0000c0 86 25 87 3d 9a 71 12 3c 7b d9 11 bd ef 90 b0 3c
       0.06598954 0.008938218 -0.035607796 0.021553485
0000d0 2b e0 80 3d 4b e5 f9 3d 2a f1 f1 bc f5 3a c6 bc
       0.06292757 0.12201937 -0.029533941 -0.024198035
0000e0 62 10 f4 3c 3a 0e 32 3d aa 9b 9a 3c 08 e6 0c bd
       0.029792968 0.0434706 0.018873055 -0.034399062
0000f0 75 88 05 bd 40 b1 14 3d c3 89 32 bd 6d 45 d7 3a
       -0.03260084 0.03630185 -0.04358841 0.0016423889
000100 32 1f 5c bd ee 24 0e 3b fa 3d eb bd 11 07 f3 3d
       -0.053740688 0.0021689492 -0.114864305 0.11866582
000110 4c 91 d9 3d 21 dd 3e bd 90 d9 ae 3d 81 c8 ea 3d
       0.10623416 -0.046597604 0.085375905 0.11464024
000120 7c 2b 54 3d d3 14 29 bd 8b 42 18 3d 0b 06 1b 3b
       0.051799282 -0.041279625 0.037172835 0.0023654725
000130 1a 0a 97 bd 2a 93 06 be 48 00 ed 3d ff 43 54 bd
       -0.073749736 -0.13142076 0.11572319 -0.05182266
000140 f4 16 6b bd 60 9f 5f be 97 dc 6b be e9 95 33 bd
       -0.057394937 -0.2183814 -0.23033367 -0.043844137
000150 2b 2a 81 3a fd bb 78 bd a2 e3 13 3e c3 ca a7 3c
       0.0009854486 -0.060726155 0.14442304 0.020482427
000160 07 87 0d 3e b8 d7 15 3e dd dd b4 bc 2a c5 f2 3d
       0.1382104 0.14633071 -0.022078449 0.11854012
000170 2b cc e4 bb 42 10 99 3d 9e 7c 24 be a1 49 e2 bc
       -0.0069823465 0.07473804 -0.16063163 -0.027623
000180 06 17 88 3d 04 be 65 bd 8e 90 94 bd a4 18 14 bc
       0.06645016 -0.056089416 -0.07254134 -0.009039078
000190 46 e6 07 be 46 c5 d6 3d c6 b0 54 3e bc 14 1f 3e
       -0.13271436 0.10486846 0.20770559 0.15535253
0001a0 50 a0 b0 3d 05 1a ec 3c 13 6e a6 bd 40 60 3f bd
       0.08624327 0.028821 -0.08126464 -0.04672265
0001b0 5b cd bc bc 40 88 13 be 95 75 dc bd 6c d4 20 be
       -0.02304714 -0.14407444 -0.107646145 -0.15706033
0001c0 17 9e e0 bd aa b2 42 be 77 11 de bb f7 62 4b bd
       -0.10967653 -0.19013467 -0.0067769843 -0.049654927
0001d0 8f 19 19 be be 2f 4e 3d 74 53 48 be 62 a8 1f ba
       -0.14951156 0.0503385 -0.19563085 -0.00060904596
0001e0 5c 6d c8 3c 18 61 12 3c b8 81 1d bd be 8d 11 3e
       0.02446621 0.008934282 -0.038453788 0.14214227
0001f0 36 ac c8 ba 00 6a 20 3e 1c 73 4e be b6 f7 ce 3d
       -0.0015310112 0.15665436 -0.20161098 0.10105841
000200 53 8b 8c bd 26 52 eb bd c8 1f 80 3d 31 85 26 be
       -0.068625115 -0.11490278 0.06256062 -0.16261746
000210 20 ea 8c 3d 09 a5 02 3e 95 76 ed bd 67 2d 19 be
       0.06880593 0.12758268 -0.11594883 -0.14958726
000220 e2 51 51 3e 7b 48 0a bc 63 85 50 3d 1e 1b d5 3d
       0.20441392 -0.008440132 0.050908457 0.10405563
000230 96 c5 25 be 31 7e 7b 3d 18 72 af 3b be 17 f8 bd
       -0.16188654 0.061399642 0.005354177 -0.121139035
000240 d3 a0 0b 3e ff ee dc 3d 3b 89 01 be 12 87 ad bb
       0.13635568 0.107877724 -0.12650006 -0.0052956427
000250 80 4d c2 bd 6c 09 16 be 26 25 00 bc 8c cc b0 3d
       -0.09487438 -0.14652032 -0.007821357 0.08632764
000260 55 28 e2 bb 27 0d d3 b9 4d 3a 56 bd e4 e3 9a bd
       -0.0069017806 -0.00040254855 -0.052301694 -0.07562998
000270 e9 25 c7 3d cd ea 94 bc 8a aa c8 3d 1d 63 47 bd
       0.09724028 -0.018178368 0.09798153 -0.048678506
000280 9e 7e c9 bd e5 af 91 bd cc c2 49 3d 3c 02 85 3d
       -0.098386034 -0.07113627 0.04925804 0.06494567
000290 bf ec 41 3e 9c bb 82 3d e3 5c dc 3d bf b9 54 bd
       0.18937968 0.0638344 0.10759904 -0.051934954
0002a0 d8 71 46 3c 1b 4f 99 3d b5 17 4f 3d 51 a0 4b bd
       0.012112103 0.07485791 0.05055972 -0.049713437
0002b0 fc 14 d1 3d 14 eb bd 3d 04 0e e2 3d 54 2f 4a 3e
       0.102090806 0.09273353 0.110378295 0.19744617
0002c0 c6 71 a7 bd f7 61 0f 3e 3a d7 28 3e 4f 36 2c bd
       -0.081759974 0.14002214 0.16488352 -0.04204398
0002d0 a2 78 ae 3b e8 ae 0f be e6 a2 80 bd 32 54 59 bd
       0.005324439 -0.14031565 -0.062810704 -0.05305881
0002e0 ba 1f 8f bc 36 62 d2 3d 90 3d 9b bc 3e c5 ba bd
       -0.017471183 0.102726385 -0.018950254 -0.09119652
0002f0 7d 44 59 3d 1b e7 85 bd 46 57 c1 3d c0 b8 83 bd
       0.05304383 -0.065382205 0.09440474 -0.06431723
000300 47 07 29 bc c3 8e f9 3c e2 97 15 bd a9 27 9c bd
       -0.010316676 0.030463582 -0.0365218 -0.07624752
000310 fa e4 98 bd 22 31 33 be 9f 78 e6 3c 16 4f 33 bd
       -0.07465549 -0.17499211 0.028133688 -0.043776594
000320 3e e9 8c 3d e7 69 43 3e 8f 6f 47 3d 6b bd 8a bd
       0.06880425 0.19083367 0.048690375 -0.0677441
000330 4f 61 60 bd a3 e1 eb 3c dc 65 24 3d fe a5 aa 3d
       -0.0547803 0.028794115 0.040136203 0.08332442
000340 52 84 dc bd 99 15 d3 3d 79 80 0f be 3d 6e 30 be
       -0.107674256 0.10306854 -0.14013852 -0.17229553
000350 ce 44 00 bd 7c b6 0e 3d 6a a0 89 bd 81 83 fc bc
       -0.031315617 0.034842 -0.0672005 -0.030824425
000360 eb e7 96 3d 16 45 81 bd fc 3d af bc 13 b2 4e bd
       0.073684536 -0.06312005 -0.021391861 -0.050462794
000370 43 49 b6 bd 2c e2 f1 bd 0f 67 97 bd 9b b4 27 bd
       -0.08900692 -0.11810717 -0.07392704 -0.040943723
000380 76 43 12 be 1a 10 97 3d 0c aa e3 3d 8c 7e 84 3d
       -0.14283547 0.07376118 0.11116418 0.064694494
000390 80 7b 52 3e 5d a4 33 3d 5f 72 17 3e 57 e6 3d 3e
       0.20554924 0.04385792 0.14789723 0.18544899
0003a0 08 21 e6 3d 62 f4 b5 bd a9 6a 3d 3e 54 bd 61 bd
       0.11236769 -0.08884503 0.18497719 -0.055112198
0003b0 a8 b3 b4 3b a6 07 6b 3d de 67 d8 bd 75 4d a7 3b
       0.0055145808 0.05738034 -0.10566686 0.005105669
0003c0 86 15 d0 3d ad 07 68 bd 8b b6 c8 bb fb 82 d6 3c
       0.10160355 -0.056647945 -0.0061252764 0.026185503
0003d0 38 e5 fe 3d 9f f1 1c bd f1 1a 74 3d bf 76 84 bd
       0.12446064 -0.038316365 0.059596006 -0.064679615
0003e0 d7 e3 48 bd e8 81 f2 3d 80 24 68 bd db 88 7b bd
       -0.04904541 0.11841184 -0.056675434 -0.061409812
0003f0 28 51 43 bd 3a 22 17 be fc d8 8f 3d d2 7a a4 3d
       -0.04768482 -0.1475915 0.07023808 0.080312386

onnx::Conv_197 f4 [16]
000000 e8 56 bc bf 68 c8 bb 3e 9c f7 44 be 76 5a b8 be
       -1.4714022 0.36676335 -0.1923508 -0.36006516
000010 b3 f7 6f bf 30 06 68 3f 3d 7f 49 bf 0b 55 62 bf
       -0.93737334 0.9063444 -0.78709775 -0.88411015
000020 ce d6 94 3f ef 72 28 bf 66 94 5b bf 04 17 77 3e
       1.1628053 -0.65800375 -0.85773313 0.24129874
000030 35 d5 ad be d4 39 05 3f c3 69 13 3f dc ce d9 bb
       -0.33951727 0.52041364 0.57583255 -0.006646974

onnx::Conv_199 f4 [8, 16, 1, 1]
000000 4e cb b0 3e 5b 64 1f be ae e8 10 3f 4b e4 e8 3d
       0.3453011 -0.15565626 0.5660504 0.113716684
000010 0d aa 35 3d bf 68 2f 3f 1a dd 67 be 1c aa 10 3f
       0.044351626 0.68519205 -0.22642937 0.56509566
000020 b1 18 7f 3e 71 8f 14 bf 38 70 2e 3e bb e2 31 3f
       0.24911763 -0.58031374 0.17034996 0.6948659
000030 67 f9 57 be 32 0c 72 be 89 d4 6d be bf 62 f3 be
       -0.21091233 -0.23637465 -0.23225607 -0.47536275
000040 d7 e4 96 3e 8c 3b b8 3e 74 fd d9 3d 3f 0e 83 be
       0.29471466 0.3598293 0.106440455 -0.25596806
000050 52 0a 0d 3f 83 1d df 3c ae dc 80 be a0 e1 ce 3e
       0.5509387 0.027235752 -0.25168365 0.40406513
000060 f0 f3 b1 be f1 df 76 3e 8e 6a 92 be ed 4c 98 be
       -0.34756422 0.24108864 -0.2859692 -0.2974619
000070 f8 1d 47 3e ed f7 8c 3e 8f 4d a5 be 42 a8 7f 3d
       0.19445026 0.27532902 -0.32285735 0.062416323
000080 7c 6d 52 3d 38 98 46 3e 0c 1d 9c 3e 01 2e d5 be
       0.051373944 0.19394004 0.3049091 -0.4163666
000090 64 a3 b7 be 6a 00 f0 be a5 7d 0e bf 2c 33 c5 be
       -0.35866845 -0.46875316 -0.5566047 -0.38515604
0000a0 83 3f 10 3e a3 a3 24 3f 72 d1 a1 be 03 88 51 3e
       0.14086728 0.6431219 -0.31605107 0.2046204
0000b0 d9 4a 8d be 3f 3d 03 bf e9 02 55 be 74 29 19 3d
       -0.27596167 -0.5126533 -0.20801891 0.03739305
0000c0 5b b6 d7 be 8d aa dc be 5e f6 89 be 6f f3 c4 bd
       -0.42131314 -0.4309887 -0.26945776 -0.09616744
0000d0 c6 98 4f 3e 81 fc 29 3e 94 a7 59 bc 42 9a 6b be
       0.20273122 0.16600229 -0.013284583 -0.23008063
0000e0 4e a9 02 3d 84 75 3b bd a3 24 27 be 7c be 90 bc
       0.031899743 -0.04576637 -0.1632257 -0.017668955
0000f0 25 f0 94 3e c1 0a e7 3e 83 8d 02 3e f4 62 0f bf
       0.29089466 0.45125392 0.12749295 -0.56010365
000100 9d 66 2c bf ea ee 1c 3e a2 22 94 be 7f 40 80 be
       -0.67344075 0.15325513 -0.28932673 -0.25049207
000110 05 46 7b be 7e d5 85 be c3 57 8f be 58 e3 f5 bd
       -0.24538429 -0.26139444 -0.27996644 -0.12006253
000120 44 ee d6 3e 05 ec f0 be d4 2f 43 ba ba 3c 8e 3e
       0.41978657 -0.4705507 -0.00074457866 0.27780706
000130 53 ff 45 be 00 18 7f 3e f5 17 24 bf 5a bc a0 3e
       -0.1933568 0.24911499 -0.64099056 0.313937
000140 98 03 1b be e0 c8 84 3e 4d 01 d6 3e b8 22 45 3c
       -0.1513809 0.25934505 0.41797867 0.012032203
000150 b5 2e 5b 3e 75 81 9c be ec 47 a3 3e 41 95 8e 3d
       0.21404536 -0.30567518 0.3189081 0.06962062
000160 9d b6 56 be fb 7e 4f be e2 7a 5b be db 56 c9 3e
       -0.20968099 -0.20263283 -0.21433595 0.39324078
000170 7e 07 bd 3e 14 a2 46 bc de 87 96 3e a3 bc 08 be
       0.3691978 -0.012123603 0.29400533 -0.13353209
000180 8f 8b 8a 3e d3 d4 3f bd d1 42 59 be 5e e4 93 be
       0.270596 -0.046833824 -0.21216895 -0.28885168
000190 6f 07 ba be 5a 74 2f 3e dc a6 10 3e d4 1e 60 3e
       -0.36333796 0.17134228 0.14126152 0.2188676
0001a0 1d 95 c3 3e 6d 47 71 3d ff 27 81 3e 09 62 b6 3e
       0.38199702 0.058906008 0.25225827 0.3562167
0001b0 dc fe 0c 3e 1e 1f b9 bd 62 f6 a3 3e 39 5a 54 bd
       0.13769096 -0.09039138 0.32023913 -0.051843856
0001c0 35 ed ad 3e 14 b1 11 be 20 de d6 3e 23 44 75 be
       0.33970037 -0.14227706 0.41966343 -0.23951773
0001d0 fe 92 b6 be 71 da fd 3e 67 e2 4e 3e 5d 3d b2 3e
       -0.3565902 0.4958072 0.20203553 0.3481244
0001e0 98 f3 05 3f d6 a6 ac be 7c 70 e1 be 2e f2 d2 bc
       0.5232482 -0.33721036 -0.4403113 -0.025750246
0001f0 b8 f6 a7 be 3e 2e a0 3e 3d 4a 26 3e e3 a9 b3 3e
       -0.3280542 0.3128528 0.16239257 0.3509055

onnx::Conv_200 f4 [8]
000000 b1 63 04 bf 94 9f b4 be 43 8a 65 3f 64 e9 5c 3e
       -0.51714617 -0.35277998 0.89664096 0.21573406
000010 84 5a 64 3f ed dd 2e bf c7 5c 0a bf b8 b5 15 bf
       0.89200616 -0.6830738 -0.54047817 -0.58480406
