utils/model/fc.onnx (onnx, 664794 bytes, 6 tensors)

classifier.f1.weight f4 [256, 560]
000000 6e ea ba b9 d9 eb f0 bc 3f 53 0c bd 12 07 19 bc
       -0.00035651348 -0.029409336 -0.034259077 -0.009340065
000010 65 41 0a bc 69 7f 09 3d d5 6e db bc 19 6f 42 bc
       -0.008438443 0.033568773 -0.026786247 -0.011867308
000020 fe fb 9b 3c 2a df 7f 3c 60 10 d6 bc fb c6 0a 3d
       0.019041058 0.015617171 -0.026130855 0.03388117
000030 a7 6a 3e bc fe 5a 69 bc 39 38 e8 bc 67 38 fb 3c
       -0.011622108 -0.014242886 -0.028347122 0.030666543
000040 d9 76 0a 3d da 33 eb bc 3b c3 95 bc 57 81 37 ba
       0.03380475 -0.028711248 -0.01828157 -0.0007000169
000050 50 70 e4 bc e9 2d 6d bc 3a e0 4a 3c cd 81 0b bd
       -0.027885586 -0.014476278 0.012382561 -0.034059335
000060 a1 c2 8d 3c 1c 25 c0 bb 61 60 95 3c a8 34 0e 3d
       0.01730472 -0.005863799 0.018234434 0.034718186
000070 bf 87 2e bd d8 8e 06 3d c0 7f 79 3c e2 43 86 bc
       -0.042609926 0.03285107 0.015228212 -0.01638979
000080 4e 41 20 bd 1d 3c 29 3d 89 70 99 bb f9 d1 3b 3c
       -0.03912478 0.041317094 -0.0046826047 0.011463636
000090 bd 8c 95 bb 09 3b 06 3d ba f4 e3 3b 2c 01 fd 3c
       -0.0045638965 0.032771144 0.006956664 0.030884348
0000a0 30 ff ab 3b 14 cb c5 3a f0 e3 12 bd f8 92 23 3d
       0.0052489266 0.0015090429 -0.03586191 0.039935082
0000b0 03 50 91 3c 54 ef 35 bd a7 67 07 bd e9 91 87 3c
       0.017738348 -0.044417694 -0.033057835 0.016549068
0000c0 94 c9 03 bd 5b 65 22 bd 78 f5 bd 3c 57 d5 00 bd
       -0.03217466 -0.03964744 0.023188338 -0.031453457
0000d0 de 26 69 bc 8d a3 a0 bb a1 21 95 bc ec a1 b2 bb
       -0.014230458 -0.0049023093 -0.018204512 -0.0054514315
0000e0 e4 b7 e3 bc ec 54 f4 3b c4 fc 3e 3c 51 1c 45 3b
       -0.027797647 0.0074564125 0.011656944 0.0030076692
0000f0 e3 de 6d 3b fe c3 27 3c ff 07 de bc 98 f4 e0 3c
       0.003629618 0.010239599 -0.027103422 0.027460381
000100 c1 3f e2 3a c3 3e 37 3b 7e de 84 bc c7 e7 18 3d
       0.0017261432 0.0027960993 -0.016219374 0.037330415
000110 d3 c3 12 3d e9 39 7f bc 78 9b d0 bc 4a f1 34 3d
       0.035831284 -0.015577772 -0.025464758 0.044175424
000120 67 d4 00 3d 60 a7 68 bc 8c 22 88 bb 90 e7 09 3d
       0.031452563 -0.014200062 -0.004154509 0.0336681
000130 22 6f 2b bd f8 4c 29 bd fa 0f 8d 3c f4 47 2d bd
       -0.04185403 -0.04133317 0.017219532 -0.042304948
000140 36 06 e6 bc 97 f5 5f bb 7a 0e d6 3a 08 46 1b 3d
       -0.028079133 -0.0034173483 0.0016331219 0.037908584
000150 3a c7 31 3d 57 98 49 3d 77 22 42 3c 0b cb 39 3d
       0.043402888 0.04921755 0.011849037 0.045359652
000160 48 ed e0 3c 05 da b7 bc b0 c2 27 3d 8d fd bb 3c
       0.027456895 -0.022442827 0.040957153 0.02294805
000170 88 28 12 bb 6b d2 84 3c 4b a1 f4 bc e9 84 10 3d
       -0.002230199 0.016213616 -0.029862067 0.035283003
000180 f1 57 e9 bb 37 d0 a3 3c bf 1f 6d bb 34 12 77 3a
       -0.007121079 0.019996746 -0.0036182252 0.0009425015
000190 7b ca 1b 3d 7e 65 46 bc 91 e0 8e 3b fe 3e ad bc
       0.038034897 -0.012109159 0.0043602665 -0.021148201
0001a0 1b 7b 8f bc 58 01 b0 3c 12 32 71 3a 48 0d 09 3d
       -0.017514756 0.021485016 0.00092008815 0.03345993
0001b0 72 db e6 3b 1a 9a 31 bc 2b 38 03 3d fa 46 3b 3d
       0.007045203 -0.010839963 0.032035988 0.045721985
0001c0 d8 fc b4 bc 58 fe a9 3c 81 85 12 bc 4b 9f 0f 3d
       -0.022093222 0.020751163 -0.008942963 0.035064023
0001d0 67 1f 5e 3d 17 75 01 bc fa 7c e8 3c fc a2 bd bc
       0.054229166 -0.007901452 0.028379906 -0.023149006
0001e0 76 3e 5f bc c8 a6 fb bc eb a5 cf bb 03 d2 b8 bc
       -0.013625732 -0.030719176 -0.0063369176 -0.022561079
0001f0 bc 4b 0e bd b9 f8 9b bc 41 13 b8 bc 5b b1 0f 3d
       -0.034740195 -0.019039499 -0.022470118 0.03508125
000200 06 a7 10 3d f6 70 22 3c 9f 5b 04 bc 2a 45 bc 3c
       0.035315536 0.009914627 -0.008078485 0.022982199
000210 d8 d5 7a bc 2d 45 63 bc c9 5c f5 bc 5d a7 2d 3c
       -0.015309773 -0.013871473 -0.02995147 0.010598985
000220 37 52 26 3d f9 6d 1e 3d 2b f4 6c 3d dd 26 4f 3d
       0.04060575 0.038679097 0.057850044 0.050574172
000230 a4 88 6d 3d ab 97 63 3d e8 ca 41 3c 26 84 a4 3c
       0.05799164 0.055564564 0.011828162 0.020082545
000240 1c 36 a4 3c f8 79 f9 3c 4e cd e9 bc 5f 12 96 bc
       0.020045333 0.030453667 -0.02854028 -0.018319307
000250 f8 7b 63 bc f9 56 54 bb e9 60 10 bd 70 51 f9 bb
       -0.013884537 -0.0032400473 -0.03524867 -0.007608585
000260 fb d0 1d bd 74 72 97 bc fb 1c dc bc ac 27 28 bd
       -0.038529377 -0.018487193 -0.026869288 -0.04105346
000270 67 85 2c bd 37 2e 30 bd 3a a6 0b bd 66 56 a6 bc
       -0.04211941 -0.043012824 -0.034094073 -0.02030487
000280 f5 2c 89 3c 09 b8 f3 bb 54 dc ad 3b 9a 84 98 3b
       0.01674507 -0.00743771 0.005305806 0.004654479
000290 e2 d5 8d bc a4 4d 40 3d 36 d9 93 bc bb b0 ff 3b
       -0.017313901 0.046949044 -0.01804791 0.0078030503
0002a0 3d ca d0 3a f6 14 68 3d 80 13 30 bc d8 34 3b 3b
       0.0015929412 0.056660615 -0.010746837 0.0028565433
0002b0 da f9 36 bc b8 ab 1c bd 25 dc 29 bd 80 b5 4f bb
       -0.011167968 -0.0382497 -0.04146971 -0.0031693876
0002c0 b1 95 58 bc 07 1c 9b bc 3e 6d 09 bd 13 2a 0a bd
       -0.013219283 -0.018934263 -0.033551447 -0.03373153
0002d0 d5 92 d3 39 3b 5a c3 3a cc d2 93 bc 02 d6 dd bb
       0.00040354455 0.001490421 -0.018044852 -0.0067698965
0002e0 5a 22 31 3d 7f b1 ea bc 6c ad e8 3c 93 b4 40 3c
       0.04324565 -0.02864909 0.028403006 0.011761802
0002f0 c8 7c 77 bb 60 6f ad 3b 98 3f 71 3c dc 24 1d 3d
       -0.0037763584 0.005292818 0.014724635 0.03836523
000300 6e e8 db 3c 7b fb f5 bc 69 5b 34 bc c5 c8 af 3c
       0.02684423 -0.030027142 -0.011008122 0.021458039
000310 f7 d5 34 3d 1f 85 54 3d fe ec 91 3c 14 54 f2 3c
       0.044149365 0.051884767 0.017813202 0.029581107
000320 8b bb d1 3c 2b 6c 90 bc 41 a0 6b 3c 32 3f b9 bc
       0.025602123 -0.017629704 0.014381469 -0.022613142
000330 5c 42 c6 3b 34 ab 01 bc 25 2b 2e 3c 18 44 09 bb
       0.006050391 -0.007914353 0.010630404 -0.0020945128
000340 10 48 08 3d bd 6b 2a 3c c6 6d d4 ba 0e 03 47 3d
       0.03327185 0.010401663 -0.0016207031 0.048586898
000350 26 88 fd bb 2a 8c 5e 3d 49 4a a0 bc 2b 8b 67 3c
       -0.0077371774 0.05433289 -0.019566672 0.014132301
000360 3c 84 13 3c c0 6f c6 3c c5 84 f6 bb 0a c3 0d 3c
       0.009003695 0.024223208 -0.0075231516 0.008652458
000370 9d cf 39 3d 93 a7 47 3d cd d8 3c 3d ed c0 f4 3c
       0.04536401 0.048743796 0.046105195 0.02987715
000380 00 99 84 3d e3 df 2c bc 95 ed 73 bc 94 03 2d 3c
       0.06474495 -0.010551426 -0.014888187 0.010559935
000390 69 db 83 bc 6c 9e fb 3c 64 62 d0 bc 6c fe 0b 3c
       -0.016095834 0.03071519 -0.025437541 0.008544546
0003a0 ee 4e 68 ba 11 f4 73 3c 35 6f c6 bc a9 c7 08 bb
       -0.0008861859 0.014889733 -0.02422295 -0.002087096
0003b0 cd c1 c0 bc 91 20 1d 3d 29 0b bf 39 b3 0b 1c 3d
       -0.023529911 0.038361136 0.00036438674 0.038097095
0003c0 9b 8e 93 3b 46 df 3b 3d 5a b4 a7 3c 16 9d a7 3b
       0.004503084 0.045867227 0.02047174 0.0051151616
0003d0 46 de 81 3b 06 b5 de 3a 14 9a a5 3b c2 f3 08 39
       0.0039632646 0.0016991205 0.005053768 0.00013060778
0003e0 95 36 0c bd ee 73 3c 3a be 74 74 3c a8 22 ae bc
       -0.03423174 0.0007188906 0.014920412 -0.02125676
0003f0 f3 b1 3a bc 29 7d e5 3c 83 df 09 bc 46 57 75 bc
       -0.011394965 0.028013783 -0.008415106 -0.014974421

classifier.f1.bias f4 [256]
000000 12 45 2d 3c d2 6d d6 3c f6 ae 49 bb ff ab 90 3c
       0.01057555 0.026175413 -0.003077445 0.01766014
000010 08 16 43 3c a2 8f 83 3b a5 34 40 bc 74 3d a2 bb
       0.011907108 0.004014925 -0.011731301 -0.0049511734
000020 7e 24 85 bc 3d 5b d8 3b 98 ff 6f 3d ec a4 14 3b
       -0.016252752 0.0066026733 0.058593363 0.002268131
000030 90 48 17 3d 7f 64 e9 3c 30 aa e4 3c 71 bb 80 3c
       0.036934435 0.028490303 0.027913183 0.015714379
000040 69 bd 0d 3c a9 a2 2e 3d 2d 33 5d 3c e6 69 88 bc
       0.008651116 0.042635594 0.013500971 -0.016652059
000050 a9 2a 1c 3d 38 df e1 bb 7f 0d 9d 3b ff 0f df 3d
       0.03812662 -0.006893065 0.0047928686 0.10891723
000060 64 4a 81 3c 04 4b 10 bd 4d 2b 26 bd 5a 73 91 bc
       0.015782543 -0.03522779 -0.04056864 -0.0177552
000070 4c 2c 49 bc 7a 9d 3f bd 40 19 19 bb a0 5c 34 3d
       -0.012278628 -0.04678104 -0.0023360997 0.044033647
000080 0c 64 23 3d f8 c9 64 3c 14 10 12 bb 69 5c 44 3d
       0.039890334 0.013964169 -0.0022287415 0.04793969
000090 0e a8 9f 3c 74 d2 0e 3c 5d b0 9a 3d f1 01 79 3d
       0.019489314 0.008717168 0.0755317 0.060792867
0000a0 39 bc 89 3d fb 26 1b bd 33 3a 5f 39 96 ff 06 bc
       0.06725354 -0.03787897 0.00021288618 -0.008239647
0000b0 37 b2 85 3d d7 e0 1f 3c 46 af 0b 3b 93 a7 8a 3c
       0.065281324 0.009758196 0.0021314188 0.016925609
0000c0 c8 53 99 3d 54 9f 14 bb 9a 76 65 bc bc e0 be b8
       0.07486683 -0.0022677975 -0.014005328 -9.101766e-05
0000d0 8b 98 ac bc d0 38 d3 3c 22 ef 89 3b b3 d0 b0 bc
       -0.021068832 0.025783926 0.004209415 -0.02158389
0000e0 e4 2a 9a bc 4a 1b 62 3d 4f ac 9b 3d d9 8e 35 bb
       -0.01881928 0.055201806 0.07601225 -0.0027703552
0000f0 f0 a7 09 bc 8d 33 23 bc 9c 79 18 3d c6 94 d7 3c
       -0.008401856 -0.009961021 0.03722535 0.026316058
000100 6a 5b c0 bc 31 3b 92 bc 6b 06 fd bc f6 7f e4 3c
       -0.02348109 -0.01785049 -0.03088685 0.027893048
000110 12 fc e0 3c bb 57 1e ba f3 cd 20 3d 2b b3 24 3d
       0.027463946 -0.00060402945 0.03925891 0.04020993
000120 f0 24 ee 3c 34 25 12 bc aa 19 ee bb 11 7c 2a bc
       0.029070348 -0.008920003 -0.007266243 -0.010405556
000130 ab 87 cb bb 00 69 ac 3c d1 79 25 bc 77 2f 56 3d
       -0.0062112412 0.021046162 -0.010099844 0.05229136
000140 3b af 8a 3d 30 d7 63 3d 01 ab 42 bd 42 a4 83 3d
       0.06771704 0.05562514 -0.047526363 0.06427814
000150 55 45 8d 3b 8a 04 8f bc 49 f3 51 3d fe dd fc bb
       0.0043112435 -0.01745822 0.051257405 -0.007716893
000160 12 c2 41 3d 47 c8 1d 3d fc b2 81 3d 04 ae ac 3d
       0.04730422 0.038521077 0.06332967 0.08431628
000170 e4 d4 e4 3c 40 a7 04 3c 35 f9 22 3d 50 57 cb bc
       0.027933545 0.008096516 0.039788444 -0.024821907
000180 84 40 4e bc b5 ac 73 3b 0d be 63 3c c0 c0 a0 bc
       -0.012588624 0.0037181799 0.013900292 -0.01962316
000190 33 bb ca bc ef a3 71 3c 3c 27 89 3d ff 03 19 3d
       -0.024747467 0.0147485575 0.066969365 0.037357327
0001a0 1b 04 45 3d c2 f1 35 3d 1f 38 bf 3c 86 3c 20 bd
       0.04809962 0.04442001 0.02334219 -0.03912022
0001b0 f8 04 42 bc 1f 3c 43 3d 7a 49 85 3c 9b f6 71 3d
       -0.011842005 0.047664758 0.016270388 0.059073072
0001c0 9b 73 55 3d 80 f4 c6 3c 9f d8 e5 3c 1c 92 85 3d
       0.052112203 0.024286509 0.028057395 0.06522009
0001d0 06 07 65 3d 06 d9 39 3d 00 51 15 3d f4 40 db bc
       0.0559149 0.045372985 0.0364542 -0.02676437
0001e0 df 9f f7 3c 19 cb a1 3c 94 cc 23 3d 0a 55 a4 3b
       0.0302276 0.019750165 0.039990023 0.0050150203
0001f0 85 d1 04 3c 9c e7 e4 3c 3b 44 09 3d 29 18 2e 3d
       0.008106594 0.027942471 0.033512335 0.04250351
000200 02 08 a4 3c 8c 3c 3e bd 6e 71 82 bc a4 7c 33 bc
       0.02002335 -0.04644446 -0.015923228 -0.01095501
000210 64 05 83 3c 5a 9a 9f bc 12 11 2a 3d 02 9c 2d 3d
       0.015993781 -0.01948278 0.041520186 0.04238511
000220 7f 60 d4 bc 03 22 09 3d f8 cc 83 bd 2e b4 80 bc
       -0.02592492 0.0334797 -0.06435579 -0.015710916
000230 34 1b d5 bc 5c 1c d8 ba fe 22 03 bc 35 ff 3b bd
       -0.026013948 -0.0016487944 -0.008003948 -0.04589768
000240 bd af 23 bc 23 83 13 bd e2 73 1c bd 3d 76 18 3d
       -0.00999063 -0.036013734 -0.038196452 0.037222136
000250 71 e7 02 bd 2d 78 65 bc c4 fb 86 ba 5f 1b 02 3d
       -0.031959 -0.014005703 -0.0010298421 0.031764384
000260 5e 31 8f 3d c7 d9 1f bd 47 4d 55 bd 31 e3 3e 3d
       0.06991838 -0.039026048 -0.05207565 0.046603385
000270 be 75 ec bc 01 8e 0f 3c 8e c8 85 bb 55 54 05 3d
       -0.028864738 0.008761884 -0.004082746 0.03255113
000280 71 ce 81 3d 7f 43 36 3c d2 8b 31 3d bb da ff 3c
       0.06338204 0.011124491 0.043346234 0.031232229
000290 84 d8 60 3d ca 1d 97 3c 12 e7 e0 bc ba 37 45 bc
       0.054893985 0.018446822 -0.027453933 -0.012037212
0002a0 91 25 1e bd 37 80 bd 3a 44 a7 13 bd 01 07 70 3b
       -0.038610045 0.0014457767 -0.03604819 0.0036625268
0002b0 fd 0d 62 bb b4 36 bd 3c 28 eb e1 3b 83 7b 96 3c
       -0.00344932 0.023097374 0.006894488 0.018369442
0002c0 fb d1 8a 3b 3f 87 1e bc 76 b9 35 3d 7b 04 02 3c
       0.0042364574 -0.0096758 0.044366322 0.007935639
0002d0 67 1e 06 bc e1 68 83 bc 52 17 b3 3c d5 13 b6 3c
       -0.008185959 -0.016041221 0.021861706 0.022226254
0002e0 4a 57 80 bc 48 94 6f 3d 92 66 29 3d 2a 63 b8 bc
       -0.015666623 0.05849102 0.041357584 -0.022508223
0002f0 e1 5f f5 3c 29 cf 72 bc b6 8d 24 bd f0 74 b9 3c
       0.029952945 -0.014819899 -0.04017421 0.022638768
000300 f7 2a e6 bc 8b 97 9c 3d e3 61 98 3c 30 fe ea bb
       -0.02809666 0.07646092 0.018601364 -0.007171415
000310 f5 ca 72 3d cb 6f be bc 69 4c cb 3c b9 76 24 3c
       0.059275586 -0.023246666 0.024816709 0.010038071
000320 9c 5d 41 3d 13 c6 1f 3c cf b1 f0 3c 4f 7c 63 3c
       0.047208413 0.009751814 0.02938166 0.013884618
000330 43 46 7b 3c ce 7b 39 3d 81 fb 1b 3d 1f 05 ae 3d
       0.015336576 0.045284085 0.03808165 0.084970705
000340 cf ec 98 3c 10 f5 9e bb d5 b5 5e bc 12 ed 39 3c
       0.018667607 -0.004850991 -0.013593157 0.011348026
000350 a7 72 a7 3d 90 40 3f bc 27 44 8a 3c 85 d5 81 3c
       0.08176165 -0.011673108 0.0168782 0.015848884
000360 d4 fd 0d 3d d4 c9 21 3d f2 c4 bc bc 9d f5 d4 bc
       0.034665897 0.03949912 -0.02304313 -0.025996024
000370 dc c7 09 3d 42 45 85 3c ab ad 60 3d 6a 1f d1 3c
       0.033637866 0.016268376 0.054853123 0.025527675
000380 96 30 20 bd 7a 82 95 3c 3f 91 e9 3c 95 62 ce 3d
       -0.039108835 0.018250693 0.028511642 0.10077397
000390 04 c3 07 3d 6b 46 ef 3b 8a 03 85 bc c9 4e e1 bc
       0.033144966 0.0073020956 -0.01623704 -0.027503388
0003a0 62 37 86 bc b8 df a9 3d 8e fc f8 3c 3d 7c 8c 3d
       -0.01638383 0.08294624 0.030393865 0.06859634
0003b0 8c 5b 6a bd 38 b1 a8 3c cf d0 8d 3c 88 bf e0 3b
       -0.057216212 0.020592317 0.017311482 0.00685877
0003c0 7e cf f3 3c b5 fa 39 3d cf a2 b0 3b 30 55 56 3d
       0.029762026 0.04540511 0.005390502 0.052327335
0003d0 2c 57 66 3d 18 a8 4e 3c 15 56 fa bc 36 a9 8c bc
       0.056235477 0.012613319 -0.030558625 -0.01717053
0003e0 7f a2 49 3d 0b 94 aa 3c 15 63 07 3a 05 16 7f bc
       0.049227234 0.020822546 0.00051646057 -0.015569215
0003f0 12 df b2 bc 56 d0 85 3d ba 15 b3 3c 1e fe b8 3b
       -0.021834884 0.065338776 0.021860946 0.0056455275

classifier.f2.weight f4 [84, 256]
000000 ae cc bb 3d 30 59 ed bc 9f 2a e0 3d 65 3e 8d bc
       0.09169899 -0.028973192 0.10945629 -0.017241666
000010 1d c8 80 bd 85 28 c0 3b 88 d7 bd 3d 48 2b 37 3d
       -0.062881686 0.0058642053 0.09269625 0.04471901
000020 d3 e0 82 bb 20 d9 41 3d ab 5d 96 bd ae 70 d5 bc
       -0.0039940863 0.047326207 -0.073420845 -0.026054706
000030 55 6c 3b 3b eb 07 92 bc 6f 9b 4f 3c 6b d6 7d 3c
       0.0028598506 -0.017826041 0.012671336 0.015493016
000040 54 f0 a8 3b cd 56 5e 3c 26 58 12 bd 51 cc 44 3d
       0.0051556025 0.0135705 -0.035728596 0.048046414
000050 41 52 3a 3d d6 e7 83 3d 65 1f 42 bd a2 34 97 3d
       0.0454886 0.064407036 -0.04739322 0.07383086
000060 b1 3a dc bb 54 80 d9 3c de 84 82 3c 69 79 f2 3d
       -0.0067208637 0.02655045 0.015932497 0.118395634
000070 80 88 81 3d 20 a0 ba bc d5 70 6c 38 5f 0c e3 bb
       0.063248634 -0.022781432 5.6371868e-05 -0.006928965
000080 77 93 f9 3c a8 f8 a1 3d 4c 62 4b bd 66 97 25 3d
       0.030465825 0.079087555 -0.04965429 0.040427588
000090 4f ed 4e 3d 80 1d 2d 3b 3d cb 1c 3d 87 9c aa bc
       0.050519284 0.0026415288 0.03827976 -0.020826591
0000a0 a1 99 f5 3c 73 c4 37 bd f0 02 96 bc d4 1d 31 3d
       0.029980483 -0.044865083 -0.018311948 0.043241337
0000b0 35 bc 49 3d 75 b0 ce bb cd 76 83 3c a3 80 5a bd
       0.049251754 -0.0063076564 0.01604786 -0.053345334
0000c0 e4 a3 96 bc 77 94 d7 3b d7 12 55 bd ba 2e 01 3c
       -0.018388696 0.0065789777 -0.05201992 0.007884676
0000d0 98 46 ec 3c 4a 47 54 bc e6 a9 a1 3b f7 88 f1 3b
       0.028842255 -0.01295645 0.0049335836 0.007371064
0000e0 ce 05 09 3d 6d bf a6 3a b0 a3 61 bd 0e 55 52 bd
       0.0334528 0.0012721844 -0.055087745 -0.051350646
0000f0 ea 0c ee bc 42 32 bf bc 92 2c 97 bd 51 96 de bc
       -0.029058892 -0.023339394 -0.07381548 -0.027171286
000100 51 32 9e bd a2 a6 fa bb b9 8d 74 bd da 04 5b 3d
       -0.07724441 -0.0076492587 -0.05970547 0.053471424
000110 0e 53 8b bb ef b2 4d 3d 17 ae 1f 3d 4d da 01 bd
       -0.0042518442 0.050219472 0.038984384 -0.03170233
000120 8f 5c 62 3d 50 1d 50 3d 94 0c 60 bc 7b c5 15 bb
       0.055264052 0.050809205 -0.013674874 -0.0022853303
000130 38 c6 09 bd ba 7a 63 3d 69 3d 0e 3e bb f5 dd 3c
       -0.0336363 0.055536963 0.13890614 0.027094712
000140 be 65 1d 3c 4a 5a af 3c 79 e4 1b bd 48 05 06 bd
       0.009606777 0.021405358 -0.038059685 -0.03271988
000150 57 9a 59 bd a7 fb f5 3c a4 ff 16 3c 93 73 ab bb
       -0.053125706 0.030027224 0.009216223 -0.0052322834
000160 87 a2 85 3c b7 0d 71 3d ef 3f 64 3c e8 84 51 3d
       0.01631285 0.05885097 0.013931259 0.05115214
000170 26 49 c6 3c 86 71 5b bd 1d 20 e3 3c 2f 14 10 3b
       0.024204802 -0.05357506 0.027725274 0.0021984687
000180 33 60 1e bd 34 72 64 bd e0 b2 b7 bc 3c 77 1b bd
       -0.03866596 -0.055772975 -0.022424161 -0.037955508
000190 5b 8d f9 3a ae a6 27 3c 4b 43 d4 3c f5 d2 1f bc
       0.001903932 0.010232611 0.025910994 -0.009754886
0001a0 a8 9a 35 bd 6f 90 ef 3c be 74 f6 3d b6 a4 27 3d
       -0.044336945 0.029243676 0.120339856 0.040928565
0001b0 26 af c5 bb 1e 1d 02 bd d6 fd 05 3e aa a6 1a 3d
       -0.006032842 -0.03176605 0.13085112 0.0377566
0001c0 5b 9f 30 bd e6 4b e3 bc d8 8d fb bb b6 35 8b bc
       -0.043120723 -0.027746152 -0.007676821 -0.016993385
0001d0 c0 5a d6 bc 55 6a 02 3d ac 0e 15 3b 2b cc 36 3c
       -0.02616632 0.031839687 0.002274434 0.011157076
0001e0 ee 2d 75 bd f0 51 e5 3b 17 bb d8 bc 69 f7 9c bc
       -0.059858255 0.006998293 -0.026456399 -0.019160943
0001f0 35 e8 10 3c 23 32 11 bd d2 84 c6 bd f6 f4 51 bd
       0.008844425 -0.035448205 -0.09693302 -0.051259004
000200 9e a7 5d 3d 2b f6 9f 3d f7 6b 84 bc ad 5d 1b 3d
       0.05411493 0.07810625 -0.016164763 0.037931133
000210 9f 30 2e bc f2 1f 22 3c b0 9d 6d bd e6 13 4c 3d
       -0.010631709 0.009895312 -0.05801171 0.049823664
000220 0e 96 ac ba e8 cf 5f 3c ba 75 f5 3d 13 6b 10 3d
       -0.0013167278 0.013660409 0.11985345 0.035258364
000230 1a c3 a4 3c c7 62 56 bd 90 db 4c 3d 49 47 b6 3d
       0.020112563 -0.052340295 0.05001408 0.08900315
000240 34 c0 7c 3d c9 b7 7a bd 75 9c cb 3c ec 32 81 bd
       0.061706737 -0.061210427 0.024854878 -0.06308541
000250 91 8f 0c 3d be 4d 85 bd bc 47 68 bd 5b 7d fb 3c
       0.034316603 -0.06508969 -0.056709036 0.030699423
000260 ec a1 0e bc b4 ba 74 ba ef b7 c5 3c a0 e7 83 bd
       -0.008705597 -0.0009335682 0.024135558 -0.06440663
000270 49 4f 58 3d 5b ad 94 3d 67 c3 ab 3c 66 6a 6b 3d
       0.052809987 0.072596274 0.020967199 0.057474516
000280 08 87 7a bd e4 df c8 3c 54 92 a4 3c c5 50 0c 3d
       -0.061163932 0.024520822 0.020089306 0.034256715
000290 a7 f1 12 3d f7 37 0f bd 21 7e 12 3d 6d c0 86 bb
       0.03587499 -0.03496548 0.035764817 -0.0041122944
0002a0 0b 98 ba bc 54 96 b4 3b e7 50 5f 3d 28 f5 a0 3d
       -0.022777578 0.0055110846 0.054520514 0.0785926
0002b0 0c b2 85 bc 23 da 73 3d 44 75 95 bb 47 74 99 bd
       -0.01632025 0.059534203 -0.0045610983 -0.07492881
0002c0 86 88 da bc f5 d1 88 bc 04 ab 8e bc 03 0e 73 bd
       -0.026676428 -0.016701678 -0.017415531 -0.059339534
0002d0 bc 4d 65 3b b6 55 c3 3d 0c 58 29 3d aa 04 af 3b
       0.003498896 0.095378324 0.041343734 0.005341132
0002e0 0d e4 17 3d d8 a9 38 bd ff 8b 33 3d 61 cf 73 3d
       0.03708272 -0.04508385 0.043834683 0.059523944
0002f0 89 22 83 3d a9 3a 82 3b 46 9f 4b 3d 8f f8 0f 3d
       0.064030714 0.003974278 0.04971244 0.035149153
000300 a8 4f 04 3d e5 58 d9 3b eb a8 91 bd 9b e6 78 3d
       0.03230253 0.0066329115 -0.07112297 0.060766798
000310 c8 82 2d bc de 5e 98 ba 8e 43 64 bc f9 58 e0 3d
       -0.010590263 -0.0011624952 -0.013932122 0.1095447
000320 00 7c 4a 3c 73 17 ed 3c 4b 5d 62 bd 9f de 40 bd
       0.0123586655 0.028941846 -0.055264752 -0.047087308
000330 74 c5 50 bc ca e7 8f 3c 8b 5c 64 bb 52 f1 b7 bd
       -0.012742389 0.01756658 -0.00348452 -0.08981575
000340 c1 a5 32 3d 58 3e 30 3d 8e ad b1 bd 38 c9 0e bd
       0.043615106 0.043028206 -0.08675681 -0.034859866
000350 bf 6e 39 bd 65 74 3e 3d 3b b8 85 bc 43 15 8e 3d
       -0.04527163 0.04649772 -0.0163232 0.06937649
000360 35 94 19 3b ae b3 37 3d 86 7c 33 3d a6 ff 4b bd
       0.0023434286 0.04484909 0.043819927 -0.049804352
000370 89 86 7c bd 19 b4 8c 3a b3 72 4a 3d ff 3c 59 3d
       -0.06165174 0.0010734826 0.049425792 0.053036686
000380 95 5c 09 3c 62 a3 19 3d 10 7c 8e 3c da 88 af bb
       0.00838389 0.03750933 0.017393142 -0.00535689
000390 70 54 6e 3d 07 3f 5f bd ae 99 9c 3c 9b 09 c3 3a
       0.058185995 -0.054503467 0.019116249 0.0014880182
0003a0 fd 06 3c bd cf cd 6d bc 7b 77 86 3d 78 af c1 bd
       -0.045905102 -0.014514401 0.06565758 -0.09457296
0003b0 35 b9 61 3d 3e 14 28 3d 8d 85 12 bd 2e 1c be 3c
       0.055108268 0.04103493 -0.035771895 0.023206796
0003c0 f2 b0 9a 3d ca 49 e8 bb 5d eb 38 bd fb 2c 0b 3d
       0.07553281 -0.0070888745 -0.045146335 0.033978444
0003d0 cb 2e 8c bd 8d da 78 bd 08 c5 5c 3d 7b 2e 95 bd
       -0.068448626 -0.0607553 0.05389884 -0.07284256
0003e0 e9 ba 6e bc c0 0a 1f 3c 73 e7 d2 3b 36 54 81 3d
       -0.01457093 0.009707153 0.0064362823 0.0631489
0003f0 80 22 25 3d 3a ff 30 bd ad 17 90 bc ec a1 d2 3d
       0.040316105 -0.043212153 -0.017589414 0.102847904

classifier.f2.bias f4 [84]
000000 e5 06 86 3c f3 8b 99 3d e2 b8 5d bd 69 54 2b 3d
       0.01636071 0.07497396 -0.054131396 0.041828547
000010 90 80 a4 3d a6 8b 3c 3d 43 e7 3b 3c 80 99 99 3c
       0.08032334 0.046031617 0.011468711 0.018749952
000020 f8 7b 31 bd 6b 12 4e bc 5c 65 34 3d 3d ea 35 3d
       -0.043331116 -0.012577633 0.044041976 0.04441284
000030 a6 e5 aa 3a 0c 11 82 3d 67 3e b1 bc 50 f4 06 3d
       0.0013038411 0.06350908 -0.021636201 0.03294784
000040 80 9b c2 3d 12 98 49 3d dd d8 94 3d 0c 97 d2 3c
       0.095023155 0.04921729 0.07267926 0.02570679
000050 73 52 7d 3d 7f bd 6e bd 17 b5 7a 3d d6 8e 22 bc
       0.061846208 -0.058286186 0.061207857 -0.00992175
000060 a9 c8 82 3d 99 c8 5e bc 1d 4f 2c 3b be 32 97 bc
       0.06385929 -0.013597631 0.0026292272 -0.018456813
000070 ce ca 46 3c d8 ef 6b 3d 8f 2a 96 3c e1 d3 bc bc
       0.012133313 0.05760178 0.01833084 -0.02305025
000080 28 f7 0a 3c e3 92 02 3d b8 b4 c2 3c 28 66 44 3d
       0.008481778 0.031878363 0.023767814 0.047948986
000090 a1 17 20 bd 0e 64 66 3d 0f 06 7d 3d 6b be 27 3c
       -0.039085034 0.056247763 0.061773356 0.01023827
0000a0 af 02 5b bc 72 76 7f 3d be 04 8e 3c 11 a8 99 3d
       -0.013367339 0.062368818 0.017336246 0.07502759
0000b0 c2 d2 cc 3c d2 d8 17 3d 01 4f 0f 3e 67 33 66 bd
       0.02500284 0.03707201 0.13994981 -0.056201365
0000c0 d1 72 de 3d fd e5 1a 3d f5 b5 2e 3b 0b 09 b9 3d
       0.10861743 0.03781699 0.0026658748 0.09034928
0000d0 a2 1a 80 bd e8 fe 86 3d d7 ac 72 bc e5 52 09 3d
       -0.0625508 0.06591588 -0.014811716 0.03352632
0000e0 1c 50 93 bd 80 d5 42 3d 3d bd cd bc db c2 17 bd
       -0.07193014 0.04756689 -0.02511465 -0.037051063
0000f0 60 7c d1 3c df 4b 8b 3c 65 77 8d bc 7a dd 6e 3c
       0.025572002 0.017003952 -0.017268846 0.014579171
000100 fa b0 12 bd cf a1 d4 3d 4d 48 d6 3d 6b f7 ab 3c
       -0.03581331 0.10382425 0.10463009 0.020992002
000110 a7 87 d8 bb db 83 7f bd 04 63 7b 3c 10 84 89 3d
       -0.006607968 -0.062381607 0.015343431 0.06714642
000120 b2 3e 42 3d 4d f8 4e 3d c7 63 3e bc 14 39 89 3d
       0.047423072 0.050529767 -0.011620468 0.0670034
000130 c2 25 6b bc 3d e4 bf bd 90 45 b6 3c 48 67 5d 3d
       -0.014352264 -0.09369705 0.022249967 0.054053575
000140 e1 1f 3e 3d e5 bc 85 3d 6b f5 b1 3d d4 95 f9 bc
       0.04641712 0.065301694 0.08689388 -0.030466951

classifier.output.weight f4 [9, 84]
000000 01 ce 32 be 7f 6c a3 bd 90 fd bb bd ff 82 43 be
       -0.17461397 -0.07979678 -0.091792226 -0.1909294
000010 00 e6 f6 3d df 3c c9 be 59 7d 55 be ae 35 80 bd
       0.12055588 -0.39304253 -0.20848598 -0.062602386
000020 a3 8c 01 3d 80 1b 16 bd bf 2c 18 bc 71 4f a6 3d
       0.031628262 -0.03664732 -0.009288012 0.08120621
000030 cf 66 0a bd 7f 4e c4 3d 50 2b 4e 3e aa 3f 01 be
       -0.033789452 0.095852844 0.2013371 -0.12621942
000040 ff 12 74 3e 2a 8d 71 3e 6c c8 3d 3e 4c 22 9c 3e
       0.23835371 0.23589006 0.18533486 0.30494916
000050 ea dc b1 3d f8 f3 3e 3d 6d 4c a9 bd e3 d3 66 3e
       0.08684714 0.046619385 -0.0826653 0.22541766
000060 30 ff 20 3d 75 01 ac 3d c5 01 49 be 17 53 a8 bd
       0.039305866 0.083987154 -0.19629581 -0.08218973
000070 fa 6c 4d 3e 61 29 f2 3d f4 35 21 bd a8 2a d8 3d
       0.20061103 0.11824299 -0.039358094 0.10555011
000080 43 d7 9a 3d 8f 39 1b 3d 50 9c fe 3b 08 61 7c bd
       0.07560589 0.03789669 0.0077700987 -0.061615974
000090 e5 c3 51 3e 8e 95 f4 3c 3b 60 89 bd 38 00 5b 3e
       0.20484884 0.02985647 -0.06707808 0.21386802
0000a0 d7 17 b0 bd 3c 62 47 3d d9 28 2e be 81 b1 ec 3d
       -0.08598297 0.048677668 -0.1700777 0.11557294
0000b0 07 a4 28 be de e2 4f 3e cd 42 49 be 2f 51 8d bd
       -0.16468821 0.20301387 -0.19654389 -0.0690025
0000c0 c6 2f 9f 39 d1 1c 86 3e 1b 3f 5a bd 30 6d 3d 3e
       0.00030362437 0.2619386 -0.05328284 0.18498683
0000d0 a3 08 59 be 14 d3 44 3e b6 33 21 be 59 14 43 be
       -0.21194701 0.19221145 -0.15742382 -0.19050731
0000e0 69 6e dd bd fa 5b 45 be 19 90 1d 3c 0b d6 5b be
       -0.10812075 -0.19273368 0.009616875 -0.2146837
0000f0 67 b3 cf bd 88 7b 5c 3e 05 de a3 bd 63 35 4c bd
       -0.1014164 0.21531498 -0.08001331 -0.0498556
000100 7e 90 ac be 1f 2c 7d 3e 10 02 03 be f8 04 7b 3e
       -0.3370399 0.24723862 -0.12793756 0.24513614
000110 93 1c a1 3d c7 20 69 bd bb 87 e0 bd c9 23 1c 3e
       0.07866778 -0.056916025 -0.109633885 0.15248026
000120 29 6d a0 be 6b 99 34 be 12 21 9e 3d eb 89 60 3e
       -0.31333283 -0.1763665 0.077211514 0.21927612
000130 9f 2d 71 be 64 d2 b2 bd 6a 8a 49 3e f3 85 80 3e
       -0.2355256 -0.08731535 0.19681707 0.25102195
000140 92 21 13 3d ec c4 06 3f 08 6b ef bd a7 0e d8 bd
       0.035920687 0.5264423 -0.116903365 -0.1054967
000150 60 b1 84 3e 04 5b a3 bd f0 0e 51 3c 3a 99 0a 3e
       0.25916576 -0.07976344 0.012759909 0.13535014
000160 d8 43 e8 bd 34 42 e7 bd 15 d0 f8 3c 8a fe 97 bd
       -0.11341065 -0.11291924 0.030372659 -0.07421596
000170 bc b9 a4 ba 62 c0 9e 3d b1 58 61 3e 59 0b bb 3d
       -0.001256756 0.07751538 0.2200649 0.09133024
000180 5f e3 af 3e ca 88 82 bd c6 ce 23 3e d5 a0 bd bd
       0.34353158 -0.06373747 0.15996847 -0.09259192
000190 f0 1a 81 be 02 31 fd 3d 70 4d 4c 3e c5 90 67 be
       -0.25215864 0.12362863 0.19951415 -0.22613819
0001a0 97 1b 08 3d 88 06 a5 3c 37 27 2b 3e 7d 8e 28 be
       0.033229437 0.020144716 0.16714178 -0.16460605
0001b0 40 6c 71 bd b9 4a d4 3c 02 c0 fd bd ee e7 56 bd
       -0.058941126 0.025914537 -0.12390138 -0.05246728
0001c0 25 26 61 be 11 36 55 3d 99 f7 58 3e 67 d3 2a bd
       -0.21987207 0.052053515 0.21188201 -0.041705515
0001d0 d1 5d 57 bc b5 b2 d2 3d 52 88 24 3e 48 07 93 bd
       -0.013144926 0.10287992 0.16067627 -0.07179123
0001e0 93 a4 e5 bd e8 48 6c bd 34 1e 9b 3d 80 5d 77 bc
       -0.11213031 -0.057686716 0.0757412 -0.015097976
0001f0 e5 db cf 3b eb 01 29 3d 43 2a d2 bd be 8c b2 bd
       0.006343352 0.041261595 -0.10261967 -0.08718251
000200 ed 90 68 3e 04 73 c3 3c 29 07 19 be a5 31 8a bd
       0.22711535 0.023858555 -0.14944138 -0.0674775
000210 55 83 e5 bd b7 93 2e be ff 3e 63 bd 45 05 0d be
       -0.1120669 -0.17048536 -0.05548 -0.13771541
000220 a0 a8 45 be 8f 7f ec 3d d2 09 a3 3e da c8 07 bd
       -0.19302607 0.11547767 0.3184343 -0.03315053
000230 4b a4 96 bc 2b c2 0c be f2 f0 60 3d 39 3c 7d 3e
       -0.018388888 -0.13745944 0.054917283 0.24730004
000240 e6 c7 9f 3d d0 2d b3 3d 34 24 45 3d dd ef ef 3c
       0.078017995 0.087489724 0.04813023 0.02928918
000250 a5 83 c5 bd 9c 15 f2 bd 3e f9 da bd 7a 07 3d 3c
       -0.0964425 -0.11820528 -0.106920704 0.011537427
000260 78 08 5b bd 55 f3 06 3e dd 19 aa bd f9 cf 22 3e
       -0.053474873 0.13178761 -0.08305714 0.15899648
000270 8a ca 57 be 09 16 fc 3d 48 52 6d 3c b5 ca fb bd
       -0.21073356 0.1230889 0.014484949 -0.12294523
000280 72 80 4c 3e 4f cf 37 3d e6 3a 3f 3e 3d 06 9f bd
       0.19970873 0.04487544 0.18674812 -0.07764862
000290 34 3f cd bb e8 ad 0c be b4 ed 6a bc af 31 b8 bc
       -0.006263638 -0.13738215 -0.014338899 -0.022484628
0002a0 1e 55 4a be 70 af 28 be 0d b2 23 3d 3e 5e a0 bd
       -0.19759032 -0.16473174 0.039964724 -0.07830475
0002b0 3c 71 78 3c 3e 9f 64 3d b7 23 74 be b9 e0 94 3d
       0.015163716 0.055815928 -0.23841749 0.07269425
0002c0 f0 e1 ee bd f8 58 c7 bd 6a dc 6a 3e 7d cd aa 3c
       -0.11664188 -0.09733766 0.22935644 0.020849938
0002d0 a3 87 00 be bf 08 ce bd 25 37 c4 3d 9e d1 46 3e
       -0.12551741 -0.10060262 0.095808305 0.194159
0002e0 fd b0 a6 3d 9e fc 32 3d 9e e7 a2 be 42 f9 2f bd
       0.081392266 0.043697946 -0.31817335 -0.04296232
0002f0 2f b2 82 3e 30 b9 cd bd 36 dd d2 bd db 16 04 be
       0.25526568 -0.10045087 -0.10296099 -0.12899344
000300 78 36 2a be 3a 6a 92 3d 55 b4 3b 3e ec c9 f0 3d
       -0.1662234 0.07149167 0.1833051 0.117572635
000310 73 91 87 be 3a c8 a9 3d 5f e8 ab 3e db a3 87 3b
       -0.26478156 0.08290143 0.33575723 0.004139406
000320 93 8f 4e bd 78 8a 37 3d 18 54 8d 3d f1 3d a9 bd
       -0.05042989 0.04480979 0.06900805 -0.082637675
000330 c1 b1 46 3d 08 a7 70 3d 30 b1 9b be bc 86 62 be
       0.048509363 0.058753043 -0.3040862 -0.2212171
000340 34 e6 f2 bc 77 4f 33 be 4d 91 51 3d 55 86 50 3d
       -0.029650785 -0.17510782 0.05116396 0.05090936
000350 4d 28 55 3e 8d 6e d3 3d 36 aa 88 be 5e 7b 43 bd
       0.20816155 0.1032382 -0.2669236 -0.047725074
000360 bd af 3a be 8c bd b6 bc 6f cb 2d bd 7e ec ad bd
       -0.18231101 -0.02230718 -0.042430338 -0.08492373
000370 c7 08 c4 3d 29 a7 2e 3d bb ba 0c bd a0 76 ff 3d
       0.09571987 0.042639885 -0.034357768 0.12473798
000380 02 8a d5 bd b7 2c 15 be cd 10 70 bd 05 33 9e bd
       -0.104267135 -0.14567839 -0.058609772 -0.07724575
000390 fa 2c 57 bd 00 34 ca bc 2b 55 9e bc 25 26 ca ba
       -0.052533127 -0.024682999 -0.01932772 -0.0015422745
0003a0 1d 2a 42 3e c7 05 27 be 4a f4 71 3e a5 4f 4e bd
       0.18961377 -0.16310798 0.23628345 -0.050368924
0003b0 0e ec df 3d c7 dc 31 3e aa 0d 42 bc 6c ec e4 3b
       0.10933696 0.17369376 -0.011844078 0.0069861915
0003c0 22 a4 f3 3d 44 41 1c 3d 19 24 07 3e 7c bc 2b bc
       0.1189654 0.03814818 0.13197364 -0.01048195
0003d0 27 03 4b 3c 2b 4a a7 3e 4d 9e 2e bd 1c 49 12 3e
       0.012390888 0.32673773 -0.042631436 0.14285702
0003e0 02 2e 72 3d c1 1b 0c 3d 5c a5 87 bc 85 e5 0a 3d
       0.059125908 0.034206156 -0.016558342 0.033910293
0003f0 ec a6 f8 3d 3f c8 18 be aa 0b 86 3d b8 83 2a bd
       0.12141213 -0.14920138 0.065451935 -0.041629523

classifier.output.bias f4 [9]
000000 cb 61 89 3d a5 4b 5d 3d 68 40 4c be 35 87 42 be
       0.06708106 0.05402722 -0.19946444 -0.1899689
000010 79 ea 3c be fd b4 9d 3d 96 39 1f 3c 5e 62 5c 3d
       -0.18448819 0.077005364 0.009718319 0.053804748
000020 35 10 c1 3e
       0.37707677
